src/results/dt1/picoevf/checkpoint.pth.tar (torch_old, 399076 bytes, 104 tensors)

encoder1.0.weight f4 [4, 4, 3, 3]
-0.014159663 -0.033717424 -0.03922588 -0.01620258 0.0012414503 0.012904375 -0.0147335585 0.02320363
0.03282609 0.004306971 0.013789863 0.002895034 0.010883692 -0.0021510415 -0.016450215 0.011294225
-0.008155249 -0.026045593 -0.0024793444 0.03225386 0.042371023 0.017143937 0.020539505 0.011139108
5.262635e-05 -0.0066954223 -0.0036942149 -0.003008767 -0.013797379 -0.004468307 -0.0062700026 0.012936297
0.027920779 0.007534543 0.0237561 0.023776453 -0.0395759 0.036225986 0.08345987 -0.047269616
-0.020237982 0.070808284 -0.089837715 -0.073644936 -0.006926617 -0.0001776458 0.0012903693 -0.028748289
0.033119056 -0.029694596 -0.00085524295 0.011072353 0.03872564 -0.037888873 0.10818031 0.07185205
-0.08276812 0.15059331 0.18488683 0.04569166 0.15645714 0.16501567 0.09025032 -0.014897043
-0.037016574 0.07568205 -0.091657326 -0.035828214 -0.022003498 -0.07288422 -0.16406095 -0.0204585
0.028920991 0.0060834237 -0.022642469 0.027031535 -0.00089078763 -0.029372036 0.003909842 -0.016327674
-0.021646284 -0.0016792075 0.00019772926 -0.0037283401 -0.0070465575 -0.004569105 0.0122292545 -0.0072477623
0.0075671976 0.002228811 -0.02836711 0.0267643 0.042781025 0.0018659792 0.049784906 0.06667386
0.01647104 0.04454848 0.0460957 0.014815207 -0.010945508 0.00016541834 0.0023625216 -0.01989544
-0.030205168 -0.010975907 -0.041245107 -0.02573744 -0.009670261 -0.025227647 -0.030243173 -0.026483813
-0.010251062 0.0031233728 -0.0029613185 0.013717121 0.027177718 -0.0010917297 0.028082827 -0.00063682883
0.0065251305 0.00068779854 0.014007491 0.022823008 -0.0076675876 -0.023148427 0.015189301 0.06558138
0.059280388 0.07266591 0.103817984 0.07112415 0.03613103 0.060515657 0.031386927 -0.013672517
-0.08727667 -0.034974825 -0.0424147 -0.07759519 -0.083445765 -0.052343827 -0.032722894 0.0014911317
00000000: eefd 67bc 481b 0abd 51ab 20bd 46bb 84bc
00000010: 29b8 a23a df6c 533c 0665 71bc 8a15 be3c
00000020: a674 063d 7e21 8d3b e1ee 613c 9cba 3d3b
00000030: 8351 323c 7df8 0cbb 9ac2 86bc 6a0b 393c
00000040: 989d 05bc 915d d5bc 7f7c 22bb a01c 043d
00000050: 3d8d 2d3d 7171 8c3c 7742 a83c ce80 363c
00000060: 1dbb 5c38 4665 dbbb a41a 72bb bc2e 45bb
00000070: 670e 62bc e06a 92bb 9874 cdbb c3f2 533c
00000080: 1eba e43c 54e4 f63b 279c c23c d6c6 c23c
00000090: 571a 22bd b361 143d 02ed aa3d c99d 41bd
000000a0: 20ca a5bc ef03 913d d6fc b7bd 28d3 96bd
000000b0: adf8 e2bb 6e46 3ab9 9c21 a93a 8881 ebbc
000000c0: d9a7 073d 1542 f3bc 6232 60ba d168 353c
000000d0: c79e 1e3d 5d31 1bbd a38d dd3d 2b27 933d
000000e0: 5582 a9bd 2235 1a3e f952 3d3e 2e27 3b3d
000000f0: 4d36 203e def9 283e 29d5 b83d ba12 74bc
00000100: b19e 17bd 31ff 9a3d d6b6 bbbd 9bc0 12bd
00000110: ae40 b4bc 5244 95bd 98ff 27be 9698 a7bc
00000120: b7eb ec3c 7557 c73b b37c b9bc 3d71 dd3c
00000130: bf83 69ba a09d f0bc 221e 803b 9dc1 85bc
00000140: 8c53 b1bc db18 dcba 8b55 4f39 2b57 74bb
00000150: cfe6 e6bb 6eb8 95bb 365d 483c a37e edbb
00000160: 41f6 f73b 3e11 123b 2462 e8bc ce40 db3c
00000170: 283b 2f3d df93 f43a 42eb 4b3d 4e8c 883d
00000180: 46ee 863c 7878 363d d8ce 3c3d 7bbb 723c
00000190: ca54 33bc 2674 2d39 89d4 1a3b c3fb a2bc
000001a0: d470 f7bc 4ad4 33bc a1f0 28bd 53d7 d2bc
000001b0: 0470 1ebc 36aa cebc 88c0 f7bc 95f4 d8bc
000001c0: 12f4 27bc 80b1 4c3b ae12 42bb c7bd 603c
000001d0: cea3 de3c 5f18 8fba f50d e63c dcf0 26ba
000001e0: c3d0 d53b 614d 343a ad7f 653c 51f7 ba3c
000001f0: 6340 fbbb c5a1 bdbc 8cdc 783c 884f 863d
00000200: fecf 723d ddd1 943d 869e d43d 8aa9 913d
00000210: 22fe 133d 44df 773d 948f 003d b102 60bc
00000220: 1cbe b2bd c341 0fbd 09bb 2dbd 3aea 9ebd
00000230: 9de5 aabd 7b66 56bd 7108 06bd 1472 c33a

encoder1.0.bias f4 [4]
4.6866862e-05 -0.07461448 -0.023101881 0.27431318
00000000: e992 4438 7acf 98bd 2840 bdbc c772 8c3e

encoder1.2.weight f4 [4]
0.13448279 0.4456182 -0.20241162 0.35293004
00000000: dbb5 093e 1228 e43e fe44 4fbe 3fb3 b43e

encoder1.2.bias f4 [4]
0.11580756 0.09762033 -0.015534756 0.026589943
00000000: 842c ed3d 2bed c73d 7d85 7ebc 27d3 d93c

encoder1.2.running_mean f4 [4]
0.00434707 0.008344474 0.0026527685 0.27237803
00000000: de71 8e3b 43b7 083c 12da 2d3b 2275 8b3e

encoder1.2.running_var f4 [4]
0.00013393935 0.0016191249 0.00017306097 0.0020484778
00000000: 1272 0c39 d138 d43a b377 3539 c13f 063b

encoder2.0.weight f4 [8, 4, 3, 3]
0.041628268 0.06369984 0.03546286 0.017474899 -0.013097018 -0.028659659 -0.047991294 -0.04610584
-0.0022055912 0.0041131983 0.003932189 -0.006222118 0.00091408374 0.034723006 0.019869555 -0.0018130915
0.017177816 -0.008928292 0.017512295 0.011204183 0.002280732 -0.0021880781 0.0030500365 0.010067218
0.003919542 0.025210395 0.024294311 -0.014800283 -0.023587815 -0.005203594 -0.009515535 0.02902831
0.03747699 0.023550216 0.03591893 0.022764446 0.008221221 0.055357173 0.041124754 -0.00062341004
0.01654812 0.047615312 0.011382749 0.02212529 0.032125007 -0.005643138 0.04610775 0.036493555
0.09849153 0.04905355 -0.01334276 -0.003909297 -0.009924715 5.9368896e-05 0.008838408 0.043861054
0.03419862 0.10460144 0.097880565 0.022379678 -0.025556736 0.010056297 0.042523798 0.008791843
0.0069286097 0.006003833 -0.0029020542 0.02544349 0.01246281 -0.02278947 0.008398705 0.02175292
0.005947584 0.073910534 0.048987743 0.07268093 0.08168267 0.06926408 0.05665105 0.07009468
0.04520919 0.005868968 0.0071831085 -0.016919898 -0.0015518155 0.012097244 0.009762904 -0.0065508317
-0.00367919 -0.002042882 0.011119518 0.006458835 0.013559284 -0.008114699 0.037068438 0.02577235
-0.009476922 0.025422169 0.010299203 -0.041174367 -0.026957197 0.11107297 -0.011537707 0.12737581
0.0982159 0.054686308 0.09622437 -0.025645787 0.027179295 0.06275705 0.03345694 0.06903278
0.0620521 -0.0059331725 0.023428703 -0.021720601 -0.009327635 0.013498299 0.011143943 0.010740709
0.052426767 0.004403286 -0.0064251046 0.022143733 -0.028202273 -0.013708645 0.028392458 0.011178828
-0.0048044724 0.06646957 0.015836332 -0.006529462 0.029632634 -0.012056067 -0.013259884 0.030765692
0.10817827 0.10382857 0.08246878 -0.0070592766 -0.095967926 -0.04489365 -0.06084828 -0.024760699
-0.04567659 -0.007816207 0.0047914414 0.047534894 0.06182844 0.025284681 0.013808195 -0.06875548
-0.067937605 0.0090373 -0.0010703059 -0.012237811 -0.00323762 -0.0020541498 0.0078082727 0.009581991
0.037921578 0.08941308 -0.0065082195 0.026539363 0.01852883 0.031251162 0.04287168 -0.00912284
-0.010651904 0.009124453 0.0035567777 0.012107598 -0.000820085 -0.0091161085 -0.0214174 -0.012196567
-0.001103227 -0.022122554 0.018016784 0.039310087 -0.0054383883 0.001863259 0.0019983188 0.08657536
0.038997352 0.03865973 0.03108036 0.07544931 0.055369373 -0.009146041 -0.0036876304 -0.0041092406
-0.010528456 0.0012928064 0.0075372057 0.0058186627 0.031309545 0.03390596 0.013992033 0.028244285
0.029551495 -0.006442151 0.011818786 -0.025881663 0.008005719 -0.013681673 -0.02438636 0.07010136
0.049233943 -0.034243867 0.001416812 0.13364147 0.06629034 -0.057778932 0.0029945283 0.10986406
0.052671574 0.061994422 0.016246937 0.04032108 0.029264133 0.01500634 0.02989222 0.039295174
0.021232124 -0.009777333 -0.014268421 -0.014105163 0.047034767 -0.039259907 -0.05203614 -0.0032345415
-0.03602764 -0.035603847 -0.014605333 -0.051937755 -0.035648607 0.025097106 -0.11925406 -0.124613285
0.00814039 -0.10433703 -0.10023305 0.04448954 0.030930879 -0.026497388 0.046195865 0.009216987
-0.041214 -0.02332685 -0.02199491 0.006339713 0.014489264 0.031137438 0.021653675 0.01869848
00000000: 6782 2a3d 1075 823d 8141 113d 8527 8f3c
00000010: e094 56bc a9c7 eabc 8592 44bd 7ad9 3cbd
00000020: ae8b 10bb 02c8 863b 98d9 803b e9e2 cbbb
00000030: 1f9f 6f3a b639 0e3d 7ac5 a23c 41a5 edba
00000040: 7eb8 8c3c f947 12bc f275 8f3c c091 373c
00000050: 5578 153b dc65 0fbb 1fe3 473b f9f0 243c
00000060: 806f 803b 0886 ce3c dd04 c73c e37c 72bc
00000070: 3c3b c1bc e982 aabb 0ce7 1bbc c7cc ed3c
00000080: 7981 193d 62ec c03c ba1f 133d 817c ba3c
00000090: 4db2 063c 34be 623d 6e72 283d 576c 23ba
000000a0: ec8f 873c 4608 433d b67e 3a3c 1940 b53c
000000b0: 8395 033d 13ea b8bb 7bdb 3c3d 447a 153d
000000c0: edb5 c93d 60ec 483d 979b 5abc 8f19 80bb
000000d0: 469b 22bc de02 7938 f8ce 103c a6a7 333d
000000e0: da13 0c3d 4839 d63d 9b75 c83d 9655 b73c
000000f0: 5c5c d1bc 2bc3 243c 6f2d 2e3d aa0b 103c
00000100: 6409 e33b cdbb c43b 6430 3ebb de6e d03c
00000110: d030 4c3c fcb0 babc b99a 093c 2e33 b23c
00000120: f3e3 c23b 685e 973d 5fa7 483d bdd9 943d
00000130: 3e49 a73d 53da 8d3d ee0a 683d cd8d 8f3d
00000140: 462d 393d 7950 c03b 4860 eb3b 999b 8abc
00000150: 4a66 cbba 8533 463c 96f4 1f3c 5ca8 d6bb
00000160: 911e 71bb dfe1 05bb a42e 363c a3a4 d33b
00000170: c227 5e3c 84f3 04bc 13d5 173d 8920 d33c
00000180: 1845 1bbc 2742 d03c fdbd 283c 74a6 28bd
00000190: 57d5 dcbc 3a7a e33d a708 3dbc ce6e 023e
000001a0: 6b25 c93d c0fe 5f3d 4811 c53d 1d17 d2bc
000001b0: 1da7 de3c c586 803d 250a 093d 0f61 8d3d
000001c0: 582a 7e3d 0f6b c2bb 8ded bf3c 67ef b1bc
000001d0: f0d2 18bc f827 5d3c 1695 363c ccf9 2f3c
000001e0: 73bd 563d 7149 903b af89 d2bb c666 b53c
000001f0: 7408 e7bc 399a 60bc 4d97 e83c 6727 373c
00000200: d66e 9dbb 3321 883d 32bb 813c 19f5 d5bb
00000210: 23c0 f23c cf86 45bc fc3f 59bc 5508 fc3c
00000220: 928c dd3d 13a4 d43d 64e5 a83d 8151 e7bb
00000230: d58a c4bd 67e2 37bd 0c3c 79bd f3d6 cabc
00000240: 6017 3bbd 8c0f 00bc 8601 9d3b f3b3 423d
00000250: d13f 7d3d d221 cf3c c43b 623c accf 8cbd
00000260: df22 8bbd 2f11 143c 8249 8cba 1a81 48bc
00000270: 402e 54bb ea9e 06bb 8adc ff3b c8fd 1c3c
00000280: a853 1b3d 341e b73d e742 d5bb 1469 d93c
00000290: c6c9 973c 3801 003d 379a 2f3d f777 15bc
000002a0: 5385 2ebc bb7e 153c d418 693b f25e 463c
000002b0: f9fa 56ba bb5b 15bc 8b73 afbc 1cd4 47bc
000002c0: 289a 90ba 5c3a b5bc ef97 933c 9d03 213d
000002d0: 8234 b2bb 9938 f43a 3af6 023b 6c4e b13d
000002e0: b0bb 1f3d aa59 1e3d 3d9c fe3c 2b85 9a3d
000002f0: ffca 623d 47d9 15bc 2cac 71bb cfa6 86bb
00000300: 8c7f 2cbc 6273 a93a aafa f63b 7baa be3b
00000310: 703e 003d fae0 0a3d d73e 653c 8f60 e73c
00000320: fa15 f23c ae18 d3bb 95a3 413c c805 d4bc
00000330: 6b2a 033c 1929 60bc e7c5 c7bc 4d91 8f3d
00000340: 88a9 493d 4c43 0cbd 52b4 b93a 4fd9 083e
00000350: 3bc3 873d 9aa9 6cbd d93f 443b 6900 e13d
00000360: 26be 573d dded 7d3d 4c18 853c b727 253d
00000370: 56bb ef3c 27dd 753c 87e0 f43c faf3 203d
00000380: feee ad3c 1b31 20bc 18c6 69bc 5719 67bc
00000390: 87a7 403d ffce 20bd d923 55bd 9afa 53bb
000003a0: b891 13bd 57d5 11bd 354b 6fbc afbc 54bd
000003b0: 4604 12bd 7298 cd3c 793b f4bd 4035 ffbd
000003c0: 455f 053c a7ae d5bd fc46 cdbd aa3a 363d
000003d0: c162 fd3c 0d11 d9bc e037 3d3d d802 173c
000003e0: 03d0 28bd f317 bfbc ab2e b4bc 5ebd cf3b
000003f0: 6164 6d3c f113 ff3c 0c63 b13c 8e2d 993c

encoder2.0.bias f4 [8]
-0.013751164 -0.019831106 -0.05180448 -0.06940158 0.000176586 -0.06317175 0.1973781 0.051263
00000000: 904c 61bc d874 a2bc ef30 54bd 6a22 8ebd
00000010: f229 3939 3160 81bd 7c1d 4a3e 27f9 513d

encoder2.2.weight f4 [8]
0.24073306 0.24504945 0.37788248 0.37757304 0.27595085 0.28458494 0.33808374 0.4242609
00000000: ba82 763e 3eee 7a3e d079 c13e 4151 c13e
00000010: 6e49 8d3e 1eb5 913e 5019 ad3e ba38 d93e

encoder2.2.bias f4 [8]
-0.0057171867 -0.008460737 0.08498127 0.078801155 0.032956246 0.052420516 0.010821388 0.013522092
00000000: 3d57 bbbb e79e 0abc a90a ae3d 8062 a13d
00000010: 21fd 063d e5b6 563d 314c 313c c48b 5d3c

encoder2.2.running_mean f4 [8]
0.009156982 0.023397261 0.03295816 0.017045893 0.015045149 0.02556154 0.22558957 0.09288522
00000000: 2b07 163c 9dab bf3c 23ff 063d d4a3 8b3c
00000010: ee7f 763c 6f66 d13c f400 673e 9b3a be3d

encoder2.2.running_var f4 [8]
0.0011710974 0.0020793467 0.007388553 0.0039502396 0.003060506 0.008088625 0.0036459393 0.008556559
00000000: 827f 993a a645 083b ad1b f23b 0371 813b
00000010: c592 483b 2786 043c b6f0 6e3b cf30 0c3c

encoder3.0.weight f4 [16, 8, 3, 3]
0.013392793 0.019111091 -0.0020776244 0.028086131 0.049604155 0.03377077 0.026866663 0.03811838
0.022271037 0.004605654 0.007707903 0.008671265 -0.015059066 -0.005720975 0.012757988 -0.016961053
-0.038356554 -0.033534583 -0.012930952 -0.025256706 -0.0062812865 -0.03037257 -0.051325288 -0.032401476
-0.019000232 -0.03062521 -0.028244477 0.005603643 0.006810693 0.0025816788 -0.0018818639 -0.005629192
-0.0019282071 -0.0014269599 0.0019399035 0.011002532 0.011711653 0.013481569 0.0054981993 0.012356998
0.021112548 0.015368193 0.01972657 0.0077675493 -0.028111013 0.008413622 -0.0022226244 -0.008071256
0.009025343 -0.0001376444 -0.02505489 -0.01280137 -0.010934023 0.00029632216 -0.0032764086 -0.0052214786
-0.00057258346 0.014866994 0.02221013 0.0013813318 0.021531325 0.023513854 -0.0125268875 0.013453489
-0.011707423 -0.033388086 0.018779593 -0.022718227 -0.058773104 0.0057572233 0.06451054 0.06150779
0.013123932 0.0041070418 -0.0039935634 0.011274434 0.006191757 -0.00532527 0.004250345 0.007213268
0.0013461146 -0.008724282 -0.03246147 -0.02302279 -0.042730007 -0.08527838 -0.050827034 -0.03889798
-0.06421304 -0.035943512 0.0062701255 0.007365992 0.0024738836 0.011487871 0.028479287 0.027800169
0.013316222 0.031598546 0.030066 0.010958788 0.013181861 0.003094514 0.0140813915 0.01474542
0.0036889117 0.0058162375 0.007169064 0.0033589946 -0.009568663 -0.002350257 0.011591237 -0.0048173885
0.009557493 0.017357834 0.0031881374 0.009120977 0.0044194767 -0.0049656 -0.0036633003 0.0041020764
0.0023728758 -0.006721969 0.003608868 0.012172902 0.0023396628 -0.0017695306 -0.007576561 -0.0063174684
0.0013733347 0.022026638 0.045952436 0.033416834 0.032600075 0.05515159 0.035919543 0.014038545
0.0037696548 0.0060147997 -0.0036591631 -0.026259098 -0.0008285263 -0.0081487885 -0.022329252 -0.0066361874
0.0025569128 0.025284301 0.021372613 0.028717436 0.06439275 0.037738025 0.01819513 0.037974354
0.022427818 -0.010802481 0.019210247 0.025086813 0.028304238 0.07123014 0.04581377 0.029008232
0.047442123 0.024374438 -0.017220479 -0.01406128 -0.0017797711 -0.014844816 -0.045204822 -0.015427342
0.00232071 -0.04441015 -0.027636731 -0.0027977917 -0.0076085646 0.00052524405 -0.0062288605 -0.016034225
-0.011133303 -0.0059694373 -0.014445752 -0.012537543 0.0073733795 0.028975597 0.018106377 0.032452576
0.046454277 0.021667909 0.02575534 0.018318404 0.006978618 0.0073453416 0.0026505622 -0.00195455
-0.001116021 -0.012094045 -0.0034621584 -0.017058877 -0.034667417 -0.015398314 -0.00037864796 0.0033203794
-0.002396189 -0.004072111 -0.01887097 -0.004605276 0.0038677007 -0.017549237 -0.0059465826 0.0015313597
0.0020897638 -0.0065300525 0.027169479 -0.008964977 -0.012997636 0.01199005 -0.030437512 -0.0020994272
-0.0020856797 0.0006399554 -0.002537141 0.001970211 -0.0015399567 -0.0076581985 0.0033373649 -0.0005033183
-0.0022918615 -0.0045485613 -0.0071764854 -0.0030261169 -0.0051881406 -0.018636782 -0.014896489 -0.0043578083
-0.022894751 -0.026176421 0.0027036942 -0.0022367637 -0.00843339 -0.002414723 -0.026679235 -0.029880883
-0.0057588946 -0.0338376 -0.02555912 0.003070696 0.007798661 0.0022272521 0.008358767 0.02770098
0.02183523 0.006188681 0.028473364 0.028800905 -0.005738144 -0.016889837 -0.016236914 -0.012440582
00000000: 726d 5b3c dd8e 9c3c c128 08bb e314 e63c
00000010: ba2d 4b3d 3853 0a3d 7a17 dc3c 0522 1c3d
00000020: c071 b63c 07eb 963b 9492 fc3b ec11 0e3c
00000030: 4dba 76bc 0477 bbbb e106 513c e8f1 8abc
00000040: c31b 1dbd 8f5b 09bd 58dc 53bc 27e7 cebc
00000050: 40d3 cdbb e5cf f8bc 773a 52bd 69b7 04bd
00000060: 60a6 9bbc b8e1 fabc f660 e7bc c49e b73b
00000070: 3c2c df3b 6231 293b e0a8 f6ba 1675 b8bb
00000080: e5bb fcba d408 bbba 5c44 fe3a f743 343c
00000090: 3ce2 3f3c cce1 5c3c 3d2a b43b 0275 4a3c
000000a0: 39f4 ac3c e0ca 7b3c 9e99 a13c ed86 fe3b
000000b0: 1149 e6bc 4ad9 093c 73a9 11bb 4d3d 04bc
000000c0: 08df 133c a354 10b9 ea3f cdbc d6bc 51bc
000000d0: 9e24 33bc b05b 9b39 04b9 56bb f018 abbb
000000e0: 6d19 16ba b194 733c 05f2 b53c ce0d b53a
000000f0: 7662 b03c 20a0 c03c 933d 4dbc 066c 5c3c
00000100: 7ed0 3fbc f2c1 08bd a9d7 993c 931b babc
00000110: 11bc 70bd 17a7 bc3b 1a1e 843d 98ef 7b3d
00000120: c305 573c 5d94 863b 70dc 82bb 67b8 383c
00000130: 39e4 ca3b 9a7f aebb 7a46 8b3b 475d ec3b
00000140: 1c70 b03a 4af0 0ebc 52f6 04bd 4a9a bcbc
00000150: a905 2fbd 6ea6 aebd 0230 50bd 7d53 1fbd
00000160: 2082 83bd 8139 13bd a075 cd3b 6b5e f13b
00000170: e120 223b a037 3c3c 654d e93c 2ebd e33c
00000180: 482c 5a3c 7a6d 013d f94c f63c 7d8c 333c
00000190: bbf8 573c 54cd 4a3b a3b5 663c c696 713c
000001a0: abc1 713b 2396 be3b 78ea ea3b 9422 5c3b
000001b0: e2c5 1cbc c506 1abb 2ce9 3d3c 2fdb 9dbb
000001c0: 0897 1c3c 0432 8e3c 12f0 503b 2670 153c
000001d0: 42d1 903b 79b6 a2bb fb13 70bb b66a 863b
000001e0: 4082 1b3b f743 dcbb c282 6c3b da70 473c
000001f0: 0755 193b 98ef e7ba cd44 f8bb c402 cfbb
00000200: 7701 b43a 3571 b43c 9f38 3c3d 17e0 083d
00000210: a887 053d a2e6 613d 5f20 133d ed01 663c
00000220: 500c 773b cc17 c53b 92ce 6fbb 521d d7bc
00000230: 7531 59ba 7f82 05bc d6eb b6bc 6074 d9bb
00000240: e191 273b 0621 cf3c 9e15 af3c d440 eb3c
00000250: 59e0 833d 3093 1a3d f40d 953c ff8a 1b3d
00000260: 8bba b73c e4fc 30bc cf5e 9d3c dc82 cd3c
00000270: 4ade e73c 1ce1 913d 38a7 3b3d aca2 ed3c
00000280: ac52 423d e7ac c73c f611 8dbc 4861 66bc
00000290: 3547 e9ba ac37 73bc b128 39bd f6c2 7cbc
000002a0: 0e17 183b 6be7 35bd 6d66 e2bc 285b 37bb
000002b0: 4451 f9bb 88b0 093a 781b ccbb 355a 83bc
000002c0: 7568 36bc 459b c3bb e0ad 6cbc 446a 4dbc
000002d0: 649c f13b 3b5e ed3c d353 943c feec 043d
000002e0: d746 3e3d e680 b13c ddfc d23c 7a10 963c
000002f0: e4ac e43b 31b1 f03b 0eb5 2d3b e817 00bb
00000300: 7347 92ba 1a26 46bc 61e5 62bb 0fbf 8bbc
00000310: 6cff 0dbd 3649 7cbc 4585 c6b9 b99a 593b
00000320: 6109 1dbb 586f 85bb 4b97 9abc dbe7 96bb
00000330: 4079 7d3b 6bc3 8fbc 8ddb c2bb e8b7 c83a
00000340: 6bf4 083b 0dfa d5bb 8792 de3c d7e1 12bc
00000350: 09f4 54bc ea71 443c 1758 f9bc 8b96 09bb
00000360: e6af 08bb aec2 273a 2a46 26bb a81e 013b
00000370: 5fd8 c9ba a0f1 fabb b1b7 5a3b 1ff1 03ba
00000380: 0e33 16bb 190c 95bb b928 ebbb d151 46bb
00000390: 4701 aabb 2aac 98bc 6710 74bc f2cb 8ebb
000003a0: c68d bbbc ef6f d6bc 7630 313b ab96 12bb
000003b0: 342c 0abc 5440 1ebb 698e dabc c1c8 f4bc
000003c0: 1cb5 bcbb 4c99 0abd 5c61 d1bc bb3d 493b
000003d0: e98b ff3b 17f7 113b 36f3 083c 2aed e23c
000003e0: ccdf b23c 6bca ca3b f940 e93c e0ef eb3c
000003f0: 0a07 bcbb 8e5c 8abc 4703 85bc 95d3 4bbc

encoder3.0.bias f4 [16]
0.017566083 0.06052954 0.13508438 0.036205642 0.002163252 0.0043829535 0.07626919 -0.0017996297
0.047677 -0.04272528 -0.009238256 0.00394656 0.016228007 0.026429214 0.15109915 0.0055439896
00000000: bfe6 8f3c d3ed 773d 8f53 0a3e 5e4c 143d
00000010: 59c5 0d3b e19e 8f3b 0533 9c3d 8de1 ebba
00000020: f548 433d b400 2fbd 0e5c 17bc 2552 813b
00000030: 99f0 843c 1482 d83c bcb9 1a3e 5baa b53b

encoder3.2.weight f4 [16]
0.16921267 0.20422073 0.20796832 0.20689167 0.18406546 0.18276569 0.23125687 0.13240351
0.14092006 0.14060424 0.23473299 0.12270389 0.2321172 0.22969413 0.33690977 0.1237097
00000000: 1646 2d3e 3d1f 513e a6f5 543e 69db 533e
00000010: a87b 3c3e ee26 3b3e 9ace 6c3e c994 073e
00000020: 594d 103e 8ffa 0f3e d85d 703e 2d4c fb3d
00000030: 22b0 6d3e f034 6b3e 707f ac3e 835b fd3d

encoder3.2.bias f4 [16]
0.038751304 0.082235925 0.09407951 -0.09528132 0.0763387 0.015677156 0.0273678 0.0045308727
0.036232248 0.020042904 0.06894214 0.027056646 -0.047735713 0.0434009 0.04932822 0.058777925
00000000: b0b9 1e3d 4f6b a83d c2ac c03d da22 c3bd
00000010: 7757 9c3d 616d 803c 7032 e03c b777 943b
00000020: 4468 143d 0431 a43c 8931 8d3d e6a5 dd3c
00000030: 8686 43bd 24c5 313d 630c 4a3d 1fc1 703d

encoder3.2.running_mean f4 [16]
0.014310258 0.08647044 0.11257407 0.05489051 0.01775374 0.032706376 0.09525406 0.019476319
0.053803224 0.02315007 0.013101276 0.018346148 0.030058077 0.05840642 0.18965173 0.01713045
00000000: 9375 6a3c 6a17 b13d 3c8d e63d dfd4 603d
00000010: 4b70 913c 1ff7 053d 9014 c33d cd8c 9f3c
00000020: c560 5c3d 37a5 bd3c bca6 563c a94a 963c
00000030: 5b3c f63c 923b 6f3d 1034 423e 2855 8c3c

encoder3.2.running_var f4 [16]
0.0010825706 0.0025824283 0.002029965 0.0013367931 0.001575209 0.0016984621 0.007129774 0.0004892163
0.0019825688 0.0016077693 0.0012948785 0.0007760538 0.0038963878 0.0017358062 0.004868516 0.00093540916
00000000: 0be5 8d3a f53d 293b 2909 053b 5537 af3a
00000010: 3e77 ce3a ee9e de3a e1a0 e93b c03e 003a
00000020: fced 013b c9bb d23a eab8 a93a 1770 4b3a
00000030: 8a5a 7f3b fe83 e33a 1388 9f3b 3f36 753a

encoder4.0.weight f4 [32, 16, 3, 3]
-0.002437594 0.016511543 0.022483366 0.0025592486 0.02754017 0.02982842 0.00898521 0.025375348
0.013176209 0.008756492 0.00026156078 -0.012272229 -0.010881845 -0.018968752 -0.0027670702 -0.026023135
-0.019454395 0.0067505087 0.0062975734 0.0077452166 -3.610527e-05 0.0043552555 0.023091009 0.026337327
-0.007758865 0.016931849 0.021920234 0.00817696 0.0025654812 0.0059888125 0.0007347974 -0.018549222
-0.017908573 0.0049939584 -0.024471255 -0.006911875 -0.0012131584 -0.009287432 8.728184e-06 -0.011249885
-0.02312004 -0.009639586 -0.013305036 -0.016182236 -0.0054826587 -0.002398851 0.01623161 0.018212244
-0.015605918 -0.00047084366 0.023169406 -0.0144560095 -0.0132212695 0.0011896176 0.0012424957 0.0022096657
0.0059287217 0.011050481 0.03925905 0.032987643 0.008732518 0.031486135 0.018721975 -0.008950424
-0.0124446945 0.0034790994 -0.014317875 -0.02497467 -0.017399421 -0.007044828 -0.019485138 -0.01373942
0.0047113993 -0.0013567979 -0.003882279 0.001398297 9.658901e-06 -0.0043059806 -0.0065320474 0.005788067
0.0038634983 0.0034268298 0.0065915803 0.007009582 0.0055947453 0.015253941 0.014720402 0.0036402096
0.013597637 0.0153283905 0.00012262048 -0.008131358 -0.009696706 0.0015544908 0.012762604 0.009757233
-0.0026004952 0.011105272 0.012642464 -0.0017994518 0.009866429 0.012939937 0.002188038 0.019161247
0.021538641 0.0023721156 0.011856288 0.012799515 -0.008801257 -0.0010882982 0.007986375 -0.029644016
-0.014120656 0.015982172 -0.010730492 -0.0039114 0.005904727 -0.005039584 -0.0036747484 0.0012953078
0.0014269786 0.005062235 0.000996083 -0.0026141559 0.0061804424 0.005961694 -0.0038212 -0.0070881573
-0.007457252 -0.0122419 -0.017786114 -0.009729601 -0.016373057 -0.011493952 0.0013967471 -0.0030339865
0.0025073164 0.011174013 -0.00392453 -0.0013205002 0.0081187 0.0010040283 -0.009186615 -0.0013044139
0.005252616 -0.00246621 0.0020335368 0.0104598105 0.012924894 0.0010468526 -0.008167585 0.0185085
0.012848701 -0.017558519 -0.02996149 -0.005384349 -0.041859236 -0.07379361 -0.030075477 -0.036987845
-0.056453593 -0.030317714 -0.0019991875 0.0048997733 0.0042123515 0.0042454875 0.023129651 0.026619738
0.006055613 0.021497965 0.02490407 -0.0049577793 0.010226241 0.01963488 -0.00798637 -0.0066061555
0.004752833 0.007703037 -0.007175367 -0.009111956 -0.009312772 -0.006715642 0.00077836146 -0.012481095
-0.011477983 -0.007826625 -0.015034543 0.0029713607 0.0026767873 -0.00037561273 -0.011264849 -0.0068794647
-0.0043274746 -0.011409106 -0.011160702 -0.0127593195 0.00060286757 -0.0019640948 -0.004435901 0.00230936
0.005576352 -0.005835943 -0.020238267 -0.004435285 0.018124508 -0.0064722695 -0.019689227 -0.01038797
-0.018757513 -0.011942656 -0.0057430975 -0.018001696 -0.015317205 0.0038688758 0.0016417605 -0.0063939756
0.007567568 0.012029108 0.003061312 0.007048451 0.017685343 0.015544182 0.010776786 0.012020371
0.013221434 0.001185277 0.0017334287 0.00077401416 0.004762614 0.009117829 0.0037137016 0.0040623643
0.0021911042 -0.0029573175 0.017157905 0.0021769553 -0.00437978 0.02806051 0.02373018 0.0004989327
0.012272097 0.025404233 0.014538197 -0.0055013825 -0.006783609 -0.0036534544 -0.013268556 -0.010618872
-0.0014933001 -0.00248942 0.00029955964 -0.0018995241 0.011707254 -0.004111072 -0.008902603 0.010445041
00000000: 0bc0 1fbb 3743 873c 092f b83c 11b9 273b
00000010: ec9b e13c bb5a f43c b436 133c f6df cf3c
00000020: 07e1 573c 6477 0f3c 1822 8939 7611 49bc
00000030: c449 32bc 5b64 9bbc bc57 35bb 782e d5bc
00000040: d35e 9fbc 5f33 dd3b e05b ce3b 96cb fd3b
00000050: bd6f 17b8 88b6 8e3b 5b29 bd3c 61c1 d73c
00000060: 143e febb a9b4 8a3c 1092 b33c a8f8 053c
00000070: a221 283b cd3d c43b 6b9f 403a 8af4 97bc
00000080: 00b5 92bc 5ca4 a33b f177 c8bc 037d e2bb
00000090: d702 9fba 502a 18bc 446f 1237 7051 38bc
000000a0: 3d66 bdbc 5bef 1dbc 5efd 59bc 9c90 84bc
000000b0: e0a7 b3bb 0b36 1dbb 27f8 843c d831 953c
000000c0: f7af 7fbc 91db f6b9 c4cd bd3c e6d8 6cbc
000000d0: 069e 58bc f1ec 9b3a 3ddb a23a 0ad0 103b
000000e0: b945 c23b 140d 353c 19ce 203d 0d1e 073d
000000f0: d612 0f3c 9bf7 003d d45e 993c cda4 12bc
00000100: d5e4 4bbc 9a01 643b 8595 6abc ae97 ccbc
00000110: 3b89 8ebc 4dd8 e6bb 4c9f 9fbc 4e1b 61bc
00000120: 1562 9a3b 95d6 b1ba d56d 7ebb 1047 b73a
00000130: aa0c 2237 2f19 8dbb c90a d6bb d3a9 bd3b
00000140: bf32 7d3b aa94 603b 2ffe d73b a3b0 e53b
00000150: 2054 b73b aaeb 793c d72d 713c 9590 6e3b
00000160: a0c8 5e3c ee23 7b3c af93 0039 6339 05bc
00000170: efde 1ebc 0ec0 cb3a 3e1a 513c cddc 1f3c
00000180: 126d 2abb e3f2 353c 5622 4f3c 95db ebba
00000190: cda6 213c 0802 543c 3065 0f3b 0cf8 9c3c
000001a0: ce71 b03c 7f75 1b3b e040 423c 0fb5 513c
000001b0: 2633 10bc 3aa5 8eba 49d9 023c 02d8 f2bc
000001c0: 535a 67bc 0bed 823c f2ce 2fbc 342b 80bb
000001d0: 717c c13b 1823 a5bb 0cd4 70bb 51c7 a93a
000001e0: 7509 bb3a 1be1 a53b 008f 823a 4252 2bbb
000001f0: 4f85 ca3b 505a c33b 196d 7abb c643 e8bb
00000200: f75b f4bb 4092 48bc 2fb4 91bc e868 1fbc
00000210: ca20 86bc 2151 3cbc 0e13 b73a d9d5 46bb
00000220: ca51 243b 3513 373c 5899 80bb a214 adba
00000230: 4c04 053c 9999 833a 7583 16bc def8 aaba
00000240: 231e ac3b 23a0 21bb 1645 053b a05f 2b3c
00000250: efc2 533c 8b36 893a 56d1 05bc 239f 973c
00000260: 5c83 523c e2d6 8fbc cc71 f5bc 316f b0bb
00000270: 9774 2bbd 1b21 97bd d960 f6bc 9180 17bd
00000280: e23b 67bd db5c f8bc cd04 03bb 478e a03b
00000290: c407 8a3b bb1d 8b3b 657a bd3c a311 da3c
000002a0: 2a6e c63b 801c b03c 9f03 cc3c de74 a2bb
000002b0: f78b 273c 54d9 a03c 43d9 02bc 7378 d8bb
000002c0: a7bd 9b3b c269 fc3b 571f ebbb 504a 15bc
000002d0: 9994 18bc e30e dcbb f40a 4c3a 827d 4cbc
000002e0: 260e 3cbc 3f3b 00bc 7253 76bc 29bb 423b
000002f0: 0a6d 2f3b e3ed c4b9 3490 38bc 226d e1bb
00000300: 7dcd 8dbb 42ed 3abc 61db 36bc 770c 51bc
00000310: c209 1e3a 0bb8 00bb 095b 91bb a258 173b
00000320: d5b9 b63b 703b bfbb b9ca a5bc de55 91bb
00000330: d979 943c 5515 d4bb 4d4b a1bc 4e32 2abc
00000340: 5ba9 99bc 21ab 43bc 9830 bcbb 4b78 93bc
00000350: 04f5 7abc f78c 7d3b 5730 d73a 8e84 d1bb
00000360: 5df9 f73b bc15 453c 4ba0 483b b1f6 e63b
00000370: dae0 903c 06ad 7e3c 1e91 303c 17f1 443c
00000380: b79e 583c 4c5b 9b3a 3734 e33a 36e7 4a3a
00000390: b40f 9c3b f262 153c 9361 733b 951d 853b
000003a0: a198 0f3b 8ecf 41bb bc8e 8c3c 40ab 0e3b
000003b0: 4284 8fbb 28df e53c cb65 c23c cfca 023a
000003c0: e810 493c 8a1c d03c 9e31 6e3c f144 b4bb
000003d0: 0949 debb cb6e 6fbb 5c64 59bc c7fa 2dbc
000003e0: d6ba c3ba 8925 23bb 370e 9d39 74f9 f8ba
000003f0: c8cf 3f3c 2cb6 86bb 39dc 11bc ad21 2b3c

encoder4.0.bias f4 [32]
0.072428554 0.034517013 -0.03146525 -0.011783311 0.012137648 0.021346642 0.05460465 0.029984739
0.020533802 0.035672233 0.031345565 -0.0046764757 -0.009644717 0.02175705 0.009157118 0.050405405
-0.0027291928 -0.007317768 0.022510856 -0.0045917 0.018845106 0.041615248 0.073033184 0.0006690935
0.053775582 -0.001398232 0.015061879 0.022249483 0.015708843 0.0533157 0.02504022 -0.0023577067
00000000: 6c55 943d b661 0d3d b5e1 00bd ca0e 41bc
00000010: fcdc 463c 27df ae3c 20a9 5f3d 8ea2 f53c
00000020: 8136 a83c 0c1d 123d 3564 003d 1f3d 99bb
00000030: e004 1ebc d73b b23c bd07 163c e675 4e3d
00000040: 42dc 32bb e3c9 efbb b068 b83c f975 96bb
00000050: 0d61 9a3c c074 2a3d 6c92 953d 1b66 2f3a
00000060: c943 5c3d e144 b7ba 19c6 763c 8c44 b63c
00000070: d5af 803c 9061 5a3d 2621 cd3c c183 1abb

encoder4.2.weight f4 [32]
0.06610655 0.083944246 0.09133751 0.046428744 0.06512795 0.070686586 0.08881043 0.06545952
0.07440773 0.07530363 0.058615442 0.073710285 0.11563967 0.12856969 0.039076608 0.15636536
0.0696108 0.049168598 0.056462537 0.10821913 0.0646655 0.21074092 0.069487564 0.054060563
0.048372548 0.06480524 0.13221526 0.10610584 0.07231574 0.14238691 0.06160346 0.045942917
00000000: df62 873d f6ea ab3d 290f bb3d 112c 3e3d
00000010: cd61 853d 21c4 903d 3ee2 b53d a40f 863d
00000020: 1463 983d ca38 9a3d bf16 703d 6bf5 963d
00000030: 7ed4 ec3d c6a7 033e cb0e 203d 3e1e 203e
00000040: 1b90 8e3d 0365 493d 4345 673d fea1 dd3d
00000050: 586f 843d 78cc 573e 7f4f 8e3d 9c6e 5d3d
00000060: 4b22 463d 9cb8 843d 7063 073e 054e d93d
00000070: 461a 943d e0cd 113e e953 7c3d a42e 3c3d

encoder4.2.bias f4 [32]
0.00018409181 -0.030358247 0.082441896 -0.045663606 0.029255196 0.01978587 0.059300795 0.011508262
-0.0019852172 0.014871862 -0.044796098 0.03337552 0.017849496 -0.047251932 -0.011805833 0.06277984
0.028310323 -0.00994782 0.039557192 0.014686084 0.028723989 0.06828584 0.022580925 0.012091607
0.16100797 0.044133525 0.047806848 -0.00070890284 -0.038459726 -0.08418618 -0.019222425 -0.045349114
00000000: c508 4139 dcb1 f8bc 4cd7 a83d c309 3bbd
00000010: 98a8 ef3c fa15 a23c 64e5 723d 268d 3c3c
00000020: 6b1a 02bb 1ca9 733c 1d7c 37bd c5b4 083d
00000030: 1b39 923c 3e8b 41bd 416d 41bc b792 803d
00000040: 0deb e73c 2efc 22bc b906 223d e79d 703c
00000050: 924e eb3c 72d9 8b3d a2fb b83c e01b 463c
00000060: 46df 243e 5bc5 343d 1dd1 433d aad5 39ba
00000070: f287 1dbd ce69 acbd 5978 9dbc febf 39bd

encoder4.2.running_mean f4 [32]
0.086819775 0.038401023 0.022674486 0.0055644624 0.018478964 0.0153697245 0.0724133 0.0260326
0.019127695 0.036905527 0.038780034 0.006498859 0.0051703607 0.013133528 0.015834713 0.058533598
0.012264863 0.0060476055 0.022646526 0.009626836 0.030580604 0.08356472 0.09118214 0.005138402
0.04805893 0.0149232615 0.04282539 0.05021195 0.0115065165 0.049360134 0.02552563 0.009384838
00000000: 91ce b13d 644a 1d3d d8bf b93c 1856 b63b
00000010: 3261 973c 4cd1 7b3c 6d4d 943d 5242 d53c
00000020: afb1 9c3c 402a 173d d0d7 1e3d 61f4 d43b
00000030: 216c a93b 022e 573c cdb7 813c edc0 6f3d
00000040: 90f2 483c fe2a c63b 3585 b93c e0b9 1d3c
00000050: 2d84 fa3c fb23 ab3d b4bd ba3d 0a60 a83b
00000060: 71d9 443d b280 743c ad69 2f3d 0cab 4d3d
00000070: d485 3c3c da2d 4a3d 201b d13c ddc2 193c

encoder4.2.running_var f4 [32]
0.0009910397 0.00066856656 0.0013463466 0.00019503212 0.0005505351 0.0002637296 0.0014277964 0.0006156501
0.0005479664 0.0009043789 0.0006203679 0.00023322816 0.00035001352 0.00016700978 0.00038237398 0.0036461705
0.00016762942 0.00032074397 0.00054142904 0.0007256092 0.0006278541 0.0043924167 0.0007753256 0.0001712723
0.0008022442 0.0006741914 0.002252637 0.0027805534 0.00068477675 0.0022756953 0.00064767606 0.000155359
00000000: c6e5 813a be42 2f3a e577 b03a 8981 4c39
00000010: c951 103a 3045 8a39 e624 bb3a 9463 213a
00000020: 67a5 0f3a d713 6d3a 2fa0 223a b58e 7439
00000030: 0582 b739 591f 2f39 5e79 c839 97f4 6e3b
00000040: aec5 2f39 8729 a839 b0ee 0d3a cf36 3e3a
00000050: 9396 243a 43ee 8f3b 383f 4b3a 8f97 3339
00000060: b24d 523a 38bc 303a faa0 133b f239 363b
00000070: 9782 333a d523 153b cec8 293a dde7 2239

resnet_block.0.res_block.0.0.weight f4 [32, 32, 3, 3]
-0.0012508854 -0.003707861 0.0012392994 0.00082010904 0.018332388 0.0082280645 0.0005569803 -0.009049901
-0.009349239 -0.008519509 -0.0061137294 0.00224234 0.00033585852 -0.014440854 -0.019916384 -0.0037817904
-0.009227222 -0.008611469 0.0028932001 0.004655847 -0.001370187 0.0003795096 0.004022579 -0.0014347158
-0.0039100116 0.00038288208 -0.007121512 0.03207499 0.00638942 0.016107181 0.011117443 0.015214533
0.019353142 0.011320151 -0.0017599965 0.025834914 -0.0072400887 0.0048996676 -0.001782631 -0.009116392
-0.0024470664 0.007424328 -0.0042223316 -0.0026262014 0.010011173 -0.012737001 -0.0074634925 -0.013958924
-0.0057134153 -0.015837932 -0.019949744 -0.004288392 0.005195979 0.008565577 -0.022933714 -0.0071326667
-0.02213249 -0.021707723 -0.015000754 -0.005373239 -0.021900157 -0.00449501 -0.01486426 -0.009293505
-0.0005800965 0.000816217 0.0022686606 0.0074417535 0.0012704587 -0.00449504 0.006835859 0.0082136905
0.012394298 -0.00078101625 -0.0030013 0.0016696658 0.0050050374 -0.015553622 0.0014932719 -0.0027014106
-0.0012085137 -0.005114797 0.001389506 0.012637386 -0.022803543 -0.011459812 -0.01124214 -0.0068317614
-0.0057753874 -0.006211879 -0.0039445288 0.0017531415 0.005304764 -0.0027956753 -0.0016461574 -0.0029535051
0.0071546705 0.0043200986 -0.0028839107 -0.0076597016 -0.008893802 -0.0068392335 0.00811009 0.0059963735
-0.009591806 -0.010223444 -0.0026142977 0.005728034 -0.007626086 -0.00035882212 -0.0007459466 0.020269636
-0.0034822682 -0.00015596005 -0.008209485 0.011029786 0.012762285 -0.008089599 -0.017741557 -0.0254329
-0.018660823 -0.0143564325 -0.009681237 0.019702708 0.003947144 0.025907405 0.00056719565 -0.007487373
-0.00400837 0.0049009547 0.0025408263 -0.00885584 0.0053767287 -0.009328318 0.0031823288 -0.0009169261
0.010395595 0.016770547 0.0030684383 0.0014007331 0.007603078 -0.012440741 0.004384085 -0.0009081848
-0.015996031 0.0048388266 -5.7716516e-06 0.0022937332 -0.012213119 0.0035774447 0.0013912764 0.006321606
0.0056287795 0.017582517 0.016471354 0.006650756 0.011885143 0.010049196 0.0061823595 0.014065552
-0.002576122 0.0011901141 0.0038519632 0.016817825 0.011923812 0.008152478 -0.0014113162 0.0002648262
-0.0037809876 0.011516958 0.013429875 0.0038890021 0.01607077 -0.0073650996 0.0065315696 -0.0060590403
-0.0006270618 -8.2448105e-06 0.00050643086 0.0036804664 -0.0054704333 -0.013556765 -0.0020665752 -0.0033374997
-0.0036007883 0.0068649305 -0.004683805 -0.007879587 -0.013124178 -0.0014730553 -0.005787829 -0.01109187
-0.003953084 -0.020072019 -0.013058036 0.0036521624 0.0003299876 0.006074258 -0.011714177 -0.003713554
0.0052153207 -0.0042392532 -0.0029373812 0.0008887299 -0.0065949596 0.0010006276 -0.009698229 0.0009401158
-0.010714198 0.0058779465 0.001551259 -0.0018156619 -0.0024891451 -0.008888303 -0.00091145735 0.0029077902
-0.017948745 -0.0117779905 -0.025993723 0.00047696932 0.01838035 0.0033851939 -0.029991295 -0.00936626
-0.036624525 0.0074982303 -0.013974394 -0.015469721 0.0044654803 -0.006696759 -0.008797578 0.01354107
-0.014550852 -0.025387233 0.008066165 0.014336407 0.0008753149 -0.012292451 -0.0065586143 -0.012332522
-0.014747068 -0.0036347227 -0.001785059 -0.01729645 -0.017738517 -0.01284955 -0.009705019 -0.023373967
-0.019733796 0.0011308521 -0.0076119886 0.0042823823 -0.0045378734 -0.011902885 -0.011696763 0.0056059444
00000000: c0f4 a3ba 96ff 72bb fd6f a23a 96fc 563a
00000010: ce2d 963c 01cf 063c 5102 123a 0946 14bc
00000020: 8d2d 19bc 6995 0bbc ae55 c8bb 39f4 123b
00000030: 2b16 b039 5599 6cbc af27 a3bc ead7 77bb
00000040: c62d 17bc 1e17 0dbc d89b 3d3b 1390 983b
00000050: d997 b3ba ebf8 c639 d7cf 833b 130d bcba
00000060: 8e1f 80bb 90bd c839 935b e9bb 1161 033d
00000070: 575e d13b 35f3 833c f025 363c 6046 793c
00000080: 7b8a 9e3c 2878 393c afaf e6ba bea3 d33c
00000090: 443e edbb 648d a03b 2ca7 e9ba eb5c 15bc
000000a0: f65e 20bb c747 f33b 7c5b 8abb 591c 2cbb
000000b0: e705 243c dbae 50bc 5090 f4bb f9b3 64bc
000000c0: 9a37 bbbb 8dbe 81bc a56d a3bc a485 8cbb
000000d0: 0843 aa3b a256 0c3c 7cdf bbbc 25b9 e9bb
000000e0: 324f b5bc 65d4 b1bc b9c5 75bc ff11 b0bb
000000f0: f567 b3bc e04a 93bb 3a89 73bc c943 18bc
00000100: 9e11 18ba 65f7 553a cfad 143b f4d9 f33b
00000110: 8585 a63a 214b 93bb 57ff df3b b792 063c
00000120: 7411 4b3c 1dbd 4cba 75b1 44bb b0d8 da3a
00000130: 4c01 a43b 9ed4 7ebc e4b9 c33a 260a 31bb
00000140: fe66 9eba 079a a7bb 1620 b63a 0a0d 4f3c
00000150: 7fce babc efc1 3bbc f430 38bc f8dc dfbb
00000160: 763f bdbb 058d cbbb 1b41 81bb abc9 e53a
00000170: 96d3 ad3b a637 37bb e0c3 d7ba 988f 41bb
00000180: ba71 ea3b 9d8f 8d3b feff 3cbb 3cfe fabb
00000190: 4fb7 11bc a61b e0bb 2fe0 043c 3a7d c43b
000001a0: f326 1dbc 3b80 27bc a354 2bbb 3bb2 bb3b
000001b0: 3fe4 f9bb 4a20 bcb9 a18b 43ba 820c a63c
000001c0: c436 64bb 3589 23b9 1381 06bc 47b6 343c
000001d0: e718 513c 3d8a 04bc be56 91bc a858 d0bc
000001e0: 95de 98bc 3e37 6bbc 0d9e 1ebc 9367 a13c
000001f0: 0b57 813b c43b d43c dbaf 143a a358 f5bb
00000200: a558 83bb 3098 a03b fe83 263b 1618 11bc
00000210: 452f b03b cdd5 18bc 9e8e 503b de5d 70ba
00000220: 4952 2a3c 6362 893c da17 493b ce98 b73a
00000230: 3e23 f93b 40d4 4bbc 5fa8 8f3b 4013 6eba
00000240: 1c0a 83bc 058f 9e3b 1caa c1b6 7552 163b
00000250: 8919 48bc 9073 6a3b 7d5b b63a 7a25 cf3b
00000260: a071 b83b 3609 903c efee 863c 96ee d93b
00000270: e7b9 423c 62a5 243c 6495 ca3b 3373 663c
00000280: 28d4 28bb 9afd 9b3a 3871 7c3b 89c5 893c
00000290: 185c 433c f991 053c eafb b8ba 5fd8 8a39
000002a0: 72ca 77bb 9fb1 3c3c fa08 5c3c a1de 7e3b
000002b0: d9a6 833c ef56 f1bb c706 d63b ea8a c6bb
000002c0: 6861 24ba 3153 0ab7 00c2 043a fb33 713b
000002d0: 5241 b3bb 321d 5ebc 616f 07bb f4b9 5abb
000002e0: 34fb 6bbb 36f3 e03b 9b7a 99bb 6219 01bc
000002f0: cb06 57bc 8913 c1ba d4a7 bdbb adba 35bc
00000300: df88 81bb 136e a4bc 5ff1 55bc 1e59 6f3b
00000310: 3002 ad39 920a c73b d2ec 3fbc 195f 73bb
00000320: 48e5 aa3b 6fe9 8abb 1481 40bb a7f9 683a
00000330: 881a d8bb 7e27 833a 52e5 1ebc 1a72 763a
00000340: 9b8a 2fbc ca9b c03b 9d53 cb3a 81fb edba
00000350: ed20 23bb 3fa0 11bc deee 6eba a090 3e3b
00000360: 3f09 93bc 79f8 40bc caf0 d4bc bd11 fa39
00000370: 6392 963c 21da 5d3b 4eb0 f5bc f174 19bc
00000380: 9903 16bd b7b3 f53b dbf4 64bc b674 7dbc
00000390: 2a53 923b 7c70 dbbb b723 10bc 5ddb 5d3c
000003a0: b266 6ebc e3f8 cfbc f327 043c 40e3 6a3c
000003b0: 6375 653a 4766 49bc a5e9 d6bb 590e 4abc
000003c0: b09d 71bc 8734 6ebb a4f8 e9ba 49b1 8dbc
000003d0: 5e50 91bc eb86 52bc cd01 1fbc c37a bfbc
000003e0: c5a8 a1bc 1a39 943a fd6d f9bb 3a53 8c3b
000003f0: 71b2 94bb 5104 43bc c8a3 3fbc 12b2 b73b

resnet_block.0.res_block.0.0.bias f4 [32]
0.030976947 -0.011743914 -0.00424826 0.00864836 0.00680374 0.009699866 0.01187191 -0.008441859
0.01686435 0.011727176 0.021156523 0.01153539 0.02466329 0.023549272 0.036041 0.014383382
-0.020401947 -0.010237989 0.014745313 0.006800603 0.013242904 0.01013582 -0.00031074937 -0.008249767
-0.002717308 -0.012923201 0.007019627 -3.5601e-41 0.015784487 0.01746884 -0.00020535469 0.013223346
00000000: 5ec3 fd3c 8c69 40bc fd34 8bbb dab1 0d3c
00000010: e8f1 de3b 30ec 1e3c 6682 423c b94f 0abc
00000020: 1b27 8a3c 5723 403c 7250 ad3c effe 3c3c
00000030: ab0a ca3c 67ea c03c ba9f 133d 47a8 6b3c
00000040: fc21 a7bc 3dbd 27bc 5396 713c 98d7 de3b
00000050: c4f8 583c b610 263c 13ec a2b9 082a 07bc
00000060: dd14 32bb d5bb 53bc e604 e63b 3e63 0080
00000070: 784e 813c d01a 8f3c 7b54 57b9 bca6 583c

resnet_block.0.res_block.0.2.weight f4 [32]
0.10291035 0.11227127 0.09410716 0.1457234 0.10677893 0.1015916 0.102204114 0.113703996
0.12391414 0.104807116 0.11859448 0.108379416 0.17739196 0.11693494 0.119558655 0.105645694
0.058266234 0.1070369 0.11133112 0.11514085 0.110594146 0.21844792 0.09569187 0.10726702
0.108256675 0.09634991 0.10121524 2.1904e-41 0.11480433 0.10366337 0.12679602 0.10497857
00000000: a9c2 d23d 7bee e53d 41bb c03d 8438 153e
00000010: e9ae da3d 420f d03d 6450 d13d a4dd e83d
00000020: b2c6 fd3d 1da5 d63d aae1 f23d 07f6 dd3d
00000030: 3da6 353e 967b ef3d 2bdb f43d c55c d83d
00000040: 93a8 6e3d 2a36 db3d 9201 e43d f7ce eb3d
00000050: 2f7f e23d d0b0 5f3e 19fa c33d d0ae db3d
00000060: adb5 dd3d 1a53 c53d f049 cf3d 0f3d 0000
00000070: 881e eb3d 764d d43d d1d6 013e 01ff d63d

resnet_block.0.res_block.0.2.bias f4 [32]
0.0036294532 0.0011506629 0.036731977 0.041679565 -0.0072733946 0.030555695 0.0034189473 -0.004626119
-0.039878495 -0.016707232 0.0130533185 0.024616083 0.008102993 0.0030787028 0.00026867492 0.0061438223
-0.13356256 0.05776071 0.039427012 0.020929174 -0.011167521 0.04400291 0.027035475 0.02807159
-0.019625602 0.04681241 -0.008340011 -2.753607e-06 0.015139422 -0.03375289 0.011442709 -0.01470426
00000000: 1fdc 6d3b d7d1 963a 4574 163d 31b8 2a3d
00000010: a855 eebb f04f fa3c 6b10 603b b396 97bb
00000020: a257 23bd 9bdd 88bc 96dd 553c aba7 c93c
00000030: 6ac2 043c 10c4 493b f0dc 8c39 1e52 c93b
00000040: a0c4 08be 7f96 6c3d 387e 213d a973 ab3c
00000050: faf7 36bc 653c 343d 8079 dd3c 64f6 e53c
00000060: dfc5 a0bc 5fbe 3f3d 8ba4 08bc 9cca 38b6
00000070: 570b 783c 7840 0abd 337a 3b3c 23ea 70bc

resnet_block.0.res_block.0.2.running_mean f4 [32]
0.0059628333 0.0065027885 0.028764758 0.028139403 0.0032782638 0.0128018325 0.0126244165 0.017655913
0.0016370169 0.006156042 0.033976667 0.016047219 0.018990975 0.0028058505 0.0056354892 0.025371816
0.0024075995 0.0006159582 0.02499462 0.011505897 0.012102295 0.041215565 0.014798281 0.0014111126
0.009317589 0.00091293803 0.003262426 0.0 0.02202659 0.010825477 0.0035464081 0.011574922
00000000: df63 c33b 5815 d53b 12a4 eb3c 9b84 e63c
00000010: 24d8 563b c7be 513c a4d6 4e3c 22a3 903c
00000020: 2c91 d63a a0b8 c93b 1e2b 0b3d 7575 833c
00000030: f692 9b3c 5ce2 373b e9a9 b83b 8ed8 cf3c
00000040: d1c8 1d3b 4178 213a 84c1 cc3c 3b83 3c3c
00000050: b448 463c a7d1 283d 7d74 723c 15f5 b83a
00000060: cda8 183c 3c52 6f3a 6dce 553b 0000 0000
00000070: 1b71 b43c 575d 313c db6a 683b bea4 3d3c

resnet_block.0.res_block.0.2.running_var f4 [32]
6.522239e-05 5.8319725e-05 0.0011881007 0.0004209237 3.777652e-05 0.00011925816 0.00014413481 0.0004139862
1.6795784e-05 9.622412e-05 0.00032543388 0.00019850086 0.00045817418 3.370313e-05 8.87501e-05 0.00022149946
2.8394747e-05 8.2235e-06 0.00029659033 0.000107881984 0.00012860392 0.0014958637 0.00014132657 1.5330907e-05
0.00021458077 1.4167097e-05 4.0493993e-05 0.0 0.000252307 9.950736e-05 5.1731142e-05 0.000119491655
00000000: 01c8 8838 549c 7438 0bba 9b3a 6caf dc39
00000010: 3b72 1e38 3d1a fa38 e522 1739 4a0c d939
00000020: ace4 8c37 eecb c938 ff9e aa39 ab24 5039
00000030: 1937 f039 765c 0d38 591f ba38 4f42 6839
00000040: 4131 ee37 aaf7 0937 ae7f 9b39 b33e e238
00000050: dad9 0639 db10 c43a 1031 1439 df9a 8037
00000060: 1601 6139 38af 6d37 18d8 2938 0000 0000
00000070: 1348 8439 9bae d038 e4f9 5838 9897 fa38

resnet_block.0.res_block.1.0.weight f4 [32, 32, 3, 3]
-1.945347e-05 -0.004581952 -0.00626149 0.009819115 0.00813767 0.004273736 0.0037431633 -0.0027147757
0.0005278798 -0.0012568258 -0.0064302105 -0.011807185 -0.0008967401 -0.008780895 -0.017114569 -0.00031009375
-0.00080271834 -0.0015590586 0.00019180743 0.011532232 0.015351331 0.0073728873 0.013113532 0.012064244
0.0015551143 0.0047614393 0.00060601544 -0.010667482 -0.01302889 -0.006241359 -0.013387497 0.0035781427
-0.012281398 -0.019159826 0.0033739535 -0.012440108 0.017899085 0.008792834 0.014337303 0.0026835941
-0.0043960284 0.00042175545 0.015253714 0.008854573 0.013087895 -0.010284556 -0.0010329393 -0.013843614
-0.0058348277 -0.0053225434 -0.011216399 -0.013579604 -0.0064243316 -0.008374738 -0.0086794235 0.0068720123
0.0003536113 0.0016450115 0.004820506 0.002045778 -0.004157059 -0.0025196536 -0.01037215 -0.0038442055
0.012816998 0.005929388 -0.00941937 -0.0023532086 0.0037588265 -0.024869066 -0.015588706 -0.01854043
0.0117761465 0.00031503988 0.0026491971 0.025762625 0.016919829 0.013164225 0.014842529 0.008351428
0.010774223 0.0051672473 -0.0033276589 -0.0070719724 -0.0050250036 -0.0067978897 -0.01439883 -0.0099051725
-0.010382097 -0.023600738 0.0089350995 0.00531026 -0.0029745111 0.010527803 -0.0024864324 -0.0014030355
0.020447502 0.0113141425 0.01380789 -0.0005189707 0.007727912 0.011771469 -0.006026417 -0.013703416
-0.0076233875 -0.0009947608 -0.0017237688 0.0031089599 0.0025537931 -0.009049596 -0.02032764 0.0036485207
0.010478138 -0.013719381 -0.007732123 0.0014132544 -0.007343689 0.009401242 0.0055770758 0.010225808
0.013279244 0.015664993 0.005892967 0.010431009 0.0073412242 0.008646463 -0.008776687 -0.014088849
-0.019366961 0.0029975686 0.0009830263 -0.01671312 -0.005290748 -0.007078392 -0.010348393 -0.0080763735
-0.017264558 -0.024823545 -0.0089305835 -0.012873784 -0.018785818 0.0026410294 0.0013924072 -0.010878568
0.0013632776 -0.0019804963 -0.0031759462 0.0067706965 0.0051421844 -0.0018711399 -0.003517617 -0.0026944897
0.010870876 -0.0021285466 0.0032110806 0.0036238383 -0.0013038282 0.0018673718 0.0024843486 0.001685568
0.005359478 0.00739025 -0.002191706 -0.010687151 -0.00020035137 -0.0009623625 0.0040222737 -0.0060287104
0.00891818 0.0003951075 -0.016003476 0.0063514044 -0.0016357366 -0.0051539796 0.008894903 0.0043507926
0.0014374529 -0.009273061 -0.0077281385 -0.004257437 0.008598819 0.0012843872 0.008308735 0.0012643274
-0.0059265126 0.014946741 -0.0024625675 0.0012721048 0.0074979626 0.022096543 -0.0065490333 -0.00068824406
0.013169492 -0.00044924393 -0.0051279347 0.009424539 -0.019021805 -0.013379199 0.0022475512 0.011709068
0.010573725 -0.004701699 0.006869044 -0.0073950915 -0.0003127763 0.008708051 0.005256244 -0.009833756
-0.005386084 0.0016680204 0.0032013818 0.004502243 0.007832471 -0.00017646287 0.0068455082 0.0038918578
0.005143225 -0.00046608353 0.0018237099 0.0033651462 -0.0033311395 0.0031534196 -0.002158148 -0.0024582406
0.0063289776 0.000987172 0.003164384 0.006994066 0.0017247773 -0.0009525839 0.0018447902 0.0019981414
-0.0032261158 0.0029776045 0.016025318 0.010595379 -0.00018171713 0.0029150965 0.011450995 0.0035025717
0.006947776 0.020037446 0.004333428 3.5248413e-06 2.8207921e-06 3.864778e-06 2.6137263e-06 1.8498832e-06
2.9780256e-06 4.379611e-06 3.9151387e-06 4.7521016e-06 0.0002974107 0.000336784 0.0054492694 -0.009394521
00000000: 0230 a3b7 3324 96bb 2f2d cdbb 5ae0 203c
00000010: dd53 053c b20a 8c3b dc4f 753b 61ea 31bb
00000020: 6a61 0a3a 13bc a4ba 84b4 d2bb ec72 41bc
00000030: 3613 6bba bedd 0fbc da33 8cbc 1494 a2b9
00000040: 846d 52ba 5359 ccba ea1f 4939 b0f1 3c3c
00000050: 2684 7b3c 4398 f13b 24da 563c 1ba9 453c
00000060: fad4 cb3a d905 9c3b 02dd 1e3a aac6 2ebc
00000070: 2077 55bc 5084 ccbb 3b57 5bbc 467f 6a3b
00000080: eb37 49bc 11f5 9cbc 8c1d 5d3b 98d1 4bbc
00000090: 1aa1 923c d20f 103c 02e7 6a3c 3ddf 2f3b
000000a0: 8f0c 90bb 0f1f dd39 b7ea 793c c512 113c
000000b0: 9c6e 563c 8e80 28bc b163 87ba 53d0 62bc
000000c0: 1532 bfbb bb68 aebb fdc4 37bc fd7c 5ebc
000000d0: 3383 d2bb 3236 09bc 2434 0ebc 9e2e e13b
000000e0: e864 b939 6d9d d73a 56f5 9d3b 7612 063b
000000f0: f037 88bb c620 25bb f3ef 29bc 11ef 7bbb
00000100: 63fe 513c 504b c23b b453 1abc 4a38 1abb
00000110: a556 763b 36ba cbbc c667 7fbc 1ae2 97bc
00000120: bdf0 403c f02b a539 279e 2d3b 240c d33c
00000130: 749b 8a3c c3ae 573c 142e 733c 6ed4 083c
00000140: 5e86 303c 0352 a93b da14 5abb 01bc e7bb
00000150: c9a8 a4bb d5c0 debb 12e9 6bbc 4e49 22bc
00000160: ac19 2abc 5656 c1bc 8664 123c b101 ae3b
00000170: 04f0 42bb ce7c 2c3c 6af3 22bb 0fe6 b7ba
00000180: 8581 a73c f45e 393c 7d3a 623c 890b 08ba
00000190: 6d3a fd3b 1fdd 403c 4079 c5bb 4b84 60bc
000001a0: 9ccd f9bb a262 82ba 15f0 e1ba b1bf 4b3b
000001b0: 8a5d 273b c244 14bc 2786 a6bc 051c 6f3b
000001c0: 7fac 2b3c 41c7 60bc c05d fdbb f33c b93a
000001d0: 54a3 f0bb ab07 1a3c e7bf b63b 268a 273c
000001e0: 3091 593c df53 803c ca19 c13b d3e6 2a3c
000001f0: a78e f03b e5a9 0d3c 18cc 0fbc ead4 66bc
00000200: 76a7 9ebc db72 443b e4d8 803a f4e9 88bc
00000210: 035e adbb dbf1 e7bb 4e8c 29bc c452 04bc
00000220: 676e 8dbc bf5a cbbc 9551 12bc 90ec 52bc
00000230: b7e4 99bc 1f15 2d3b 6f81 b63a 053c 32bc
00000240: 01b0 b23a 37cb 01bb 8923 50bb b8dc dd3b
00000250: c57f a83b 0941 f5ba d287 66bb 0996 30bb
00000260: c21b 323c 167f 0bbb fe70 523b eb7d 6d3b
00000270: 37e5 aaba 9ac2 f43a 74d0 223b 47ee dc3a
00000280: 8f9e af3b e929 f23b baa2 0fbb 2919 2fbc
00000290: 6915 52b9 0e47 7cba 47cd 833b 7d8c c5bb
000002a0: 8f1d 123c 6e26 cf39 b919 83bc 711f d03b
000002b0: 3666 d6ba b7e2 a8bb edbb 113c 1891 8e3b
000002c0: ea68 bc3a 09ee 17bc 533c fdbb f881 8bbb
000002d0: 10e2 0c3c e258 a83a 5c21 083c cab7 a53a
000002e0: 3133 c2bb 2de3 743c 0763 21bb c1bc a63a
000002f0: 78b1 f53b cf03 b53c 4699 d6bb 476b 34ba
00000300: dac4 573c 8088 ebb9 3c08 a8bb 6269 1a3c
00000310: 9ed3 9bbc 6e34 5bbc a74b 133b 64d7 3f3c
00000320: 6b3d 2d3c b610 9abb b815 e13b 8652 f2bb
00000330: 20fc a3b9 37ac 0e3c 923c ac3b c31d 21bc
00000340: bf7d b0bb 7aa1 da3a 46ce 513b 8d87 933b
00000350: c453 003c e408 39b9 4950 e03b 8a0e 7f3b
00000360: 8088 a83b ac5c f4b9 8d09 ef3a c989 5c3b
00000370: 3f4f 5abb 9aa9 4e3b b76f 0dbb 6f1a 21bb
00000380: 5063 cf3b ff63 813a 8e61 4f3b 7a2e e53b
00000390: ec11 e23a d3b6 79ba e3cc f13a 40f3 023b
000003a0: 3e6d 53bb ea23 433b 8747 833c 3e98 2d3c
000003b0: 528b 3eb9 340b 3f3b f49c 3b3c 678b 653b
000003c0: 2baa e33b 9225 a43c 6eff 8d3b 508c 6c36
000003d0: d74c 3d36 31ae 8136 7a67 2f36 8149 f835
000003e0: 17da 4736 92f4 9236 c95e 8336 3e74 9f36
000003f0: caed 9b39 6292 b039 c98f b23b 7aeb 19bc

resnet_block.0.res_block.1.0.bias f4 [32]
0.02835317 0.052651893 -0.0015859705 0.035164226 0.022204546 0.010659773 0.025141051 0.04322013
0.0077556544 0.001286155 0.0052317954 -0.0005253384 -0.009285418 0.01537413 -0.008099921 -0.0114206495
0.029194098 0.012156052 0.0075882087 0.018886937 0.03573045 -0.0017347366 0.019096453 -0.01685166
0.020538945 0.03416632 -0.0013881038 -0.011017231 0.017229233 0.043690104 0.007819786 0.018076431
00000000: e844 e83c 83a9 573d 57e0 cfba 5d08 103d
00000010: 4fe6 b53c 54a6 2e3c 9bf4 cd3c 9707 313d
00000020: 2523 fe3b 3394 a83a 7b6f ab3b ddb6 09ba
00000030: de21 18bc c6e3 7b3c 88b5 04bc ad1d 3bbc
00000040: 7628 ef3c 2d2a 473c 82a6 f83b c7b8 9a3c
00000050: 185a 123d 1a60 e3ba 2a70 9c3c 7e0c 8abc
00000060: 4a41 a83c fcf1 0b3d 09f1 b5ba 9e81 34bc
00000070: 5224 8d3c 65f4 323d 8f1e 003c 0615 943c

resnet_block.0.res_block.1.2.weight f4 [32]
0.1564724 0.19430831 0.073270835 0.12833552 0.12656958 0.10514693 0.12879568 0.11016233
0.077431485 0.10681308 0.11236921 0.08031354 0.11447168 0.11461805 0.14500979 0.21480663
0.10357879 0.10509863 0.08660127 0.09557336 0.12545076 0.06655766 0.09652139 0.11762346
0.112195484 0.18628676 0.13316423 0.12886636 0.07851707 0.20901339 0.16352905 0.11671246
00000000: 4d3a 203e c2f8 463e 050f 963d 636a 033e
00000010: 759b 013e 4657 d73d 04e3 033e ca9c e13d
00000020: 6694 9e3d d1c0 da3d d421 e63d 6d7b a43d
00000030: 2170 ea3d debc ea3d 727d 143e 45f6 5b3e
00000040: 1e21 d43d f33d d73d 025c b13d f7bb c33d
00000050: 2a76 003e 624f 883d 02ad c53d 92e4 f03d
00000060: bfc6 e53d f5c1 3e3e 345c 083e 8bf5 033e
00000070: 8fcd a03d 9b07 563e 2974 273e f106 ef3d

resnet_block.0.res_block.1.2.bias f4 [32]
-0.01273078 -0.0033669418 0.009580111 -0.009466973 0.002944155 -0.009549154 0.044655465 -0.020067329
0.03937298 -0.015551849 -0.052281477 -0.0034572438 0.010451139 0.015163712 0.01592958 -0.0026918654
0.0092548225 0.005803183 0.039704047 0.015570729 0.031524066 0.005801845 -0.0111213885 -0.02304532
0.05362165 0.018946115 0.023613658 -0.0029971476 -0.05167855 -0.05315189 -0.0003377786 -0.018611578
00000000: c394 50bc e9a7 5cbb e6f5 1c3c 5d1b 1bbc
00000010: b9f2 403b 0e74 1cbc a6e8 363d 3d64 a4bc
00000020: 9045 213d 2fcd 7ebc 1a25 56bd ed92 62bb
00000030: 413b 2b3c 3871 783c c07e 823c 026a 30bb
00000040: 8aa1 173c a128 be3b b6a0 223d 5f1c 7f3c
00000050: 611f 013d 671d be3b 7c36 36bc 8ac9 bcbc
00000060: 60a2 5b3d e234 9b3c 6e71 c13c cb6b 44bb
00000070: e3ac 53bd ccb5 59bd e017 b1b9 4f77 98bc
