src/results/dt1/picoevf/model_best.pth.tar (torch_old, 399076 bytes, 104 tensors)

encoder1.0.weight f4 [4, 4, 3, 3]
0	0xbca10ac6	-0.019658457
1	0xbd0a2ec7	-0.033736017
2	0xbd29fe18	-0.04150209
3	0xbc66ffed	-0.014099103
4	0x3b425092	0.0029650074
5	0x3c1470dc	0.009060111
6	0xbc2b9200	-0.010471821
7	0x3cbe1cad	0.023207033
8	0x3d025138	0.031815737
9	0x3a8ea457	0.0010882717
10	0x3c4777f6	0.012174597
11	0x3b5c9d3f	0.0033663062
12	0x3c2ed1cb	0.010670136
13	0xbaf4c94d	-0.0018675715
14	0xbc87726c	-0.016534053
15	0x3c5ef76c	0.013608795
16	0xbba9c3bf	-0.0051808055
17	0xbcdd4e39	-0.027014839
18	0x3b745dfe	0.003728747
19	0x3d010b17	0.031504717
20	0x3d3548cc	0.044258878
21	0x3c813e31	0.015776725
22	0x3ca58251	0.020203741
23	0x3c8bb2bc	0.017053
24	0xbb2e9f4b	-0.002664524
25	0xbbeb2c20	-0.007176891
26	0xbb226d86	-0.002478452
27	0x3a044646	0.0005045872
28	0xbc1d40c1	-0.009597958
29	0xbac2c42d	-0.001485949
30	0xbb93a6a1	-0.0045059477
31	0x3c438e4f	0.0119357845
32	0x3ce43fad	0.027862394
33	0x3b4d1b96	0.003129696
34	0x3c9c0c68	0.019048885
35	0x3cc688df	0.024235187
36	0xbd2592da	-0.04042325
37	0x3d23a44a	0.0399516
38	0x3db960c6	0.09051661
39	0xbd4dd460	-0.050251365
40	0xbcc0c596	-0.023531716
41	0x3d90ce7f	0.07070636
42	0xbdc392fb	-0.09549519
43	0xbda3c0ee	-0.07995783
44	0xbc676b83	-0.014124754
45	0xba4cd7d1	-0.00078141416
46	0xb88518ed	-6.346577e-05
47	0xbd0c21a2	-0.034211762
48	0x3d134d56	0.035962425
49	0xbd031793	-0.032004904
50	0xbb66c6db	-0.0035213742
51	0x3c1f3c6f	0.009718998
52	0x3d30494a	0.043038644
53	0xbd23ddcd	-0.040006448
54	0x3de40f05	0.11135677
55	0x3d8c3aa9	0.06847126
56	0xbdae7fd9	-0.08520479
57	0x3e19de97	0.15026318
58	0x3e3d7933	0.18503265
59	0x3d2f9b11	0.042872492
60	0x3e27cfec	0.1638791
61	0x3e2a3bb8	0.16624343
62	0x3db2fae2	0.08739258
63	0xbc7ff095	-0.015621324
64	0xbd1553c0	-0.036456823
65	0x3da89727	0.08231955
66	0xbdc99c74	-0.09844294
67	0xbd0e4786	-0.03473618
68	0xbcb57841	-0.022152068
69	0xbda121fa	-0.07867809
70	0xbe2f8d48	-0.17143738
71	0xbc8bfb1e	-0.017087515
72	0x3d04112e	0.032242946
73	0x3c08208a	0.008308539
74	0xbcc19025	-0.023628304
75	0x3ce14c97	0.027502341
76	0xba60120e	-0.0008547612
77	0xbd00c501	-0.031437878
78	0x3aeb1eea	0.001793829
79	0xbca01003	-0.019538885
80	0xbcbeb966	-0.023281764
81	0xbb1e724e	-0.0024177018
82	0xba1ddca5	-0.00060219533
83	0xbb82608e	-0.0039787954
84	0xbc0e652a	-0.008691112
85	0xbba1be25	-0.004935997
86	0x3c4326fa	0.011911148
87	0xbc030aae	-0.007998152
88	0x3c121869	0.008916953
89	0x3b724203	0.0036965616
90	0xbd045352	-0.032306023
91	0x3cc93af5	0.024564246
92	0x3d3bb0f3	0.04582305
93	0x3b211dd7	0.0024584436
94	0x3d485e4e	0.04891806
95	0x3d89d01d	0.067291476
96	0x3c9cb2ea	0.019128282
97	0x3d3cec05	0.046123523
98	0x3d39df1d	0.045378793
99	0x3c943ddb	0.018095901
100	0xbc0f6c69	-0.008753874
101	0xba582dce	-0.00082465715
102	0x3b5aedb4	0.0033405842
103	0xbcad818d	-0.021179939
104	0xbd026b1a	-0.03184042
105	0xbc55ea64	-0.013056371
106	0xbd36c93d	-0.04462551
107	0xbcdb70cc	-0.026787184
108	0xbc57fa6a	-0.013182262
109	0xbcee31ab	-0.029076418
110	0xbd02533f	-0.03181767
111	0xbcf77304	-0.03020621
112	0xbc04a1f6	-0.008095255
113	0x3bc88ba6	0.006120163
114	0xbb275a00	-0.0025535822
115	0x3c8c17a6	0.01710112
116	0x3d032a6c	0.03202288
117	0xbb51c9ab	-0.0032011073
118	0x3d07f834	0.03319569
119	0x3ae19035	0.0017209115
120	0x3be843a4	0.0070881415
121	0x3a42bc82	0.00074286025
122	0x3c89934b	0.016793868
123	0x3cd9882a	0.026554186
124	0xbc0fa9a2	-0.008768471
125	0xbcf4d72a	-0.029887754
126	0x3ca5cca1	0.020239176
127	0x3d984fe1	0.07437111
128	0x3d826ded	0.06368623
129	0x3da619f3	0.08110418
130	0x3dddad33	0.10824051
131	0x3d9240ac	0.071412414
132	0x3d15e446	0.03659465
133	0x3d7f4209	0.062318835
134	0x3d0064d7	0.03134617
135	0xbc6a2d04	-0.014292959
136	0xbdcb7f79	-0.09936423
137	0xbd1f7364	-0.038928404
138	0xbd39d080	-0.045364857
139	0xbda82994	-0.082110554
140	0xbdba822d	-0.0910686
141	0xbd626c5a	-0.055279113
142	0xbd0bda3d	-0.034143675
143	0x3bd8b669	0.006613542

encoder1.0.bias f4 [4]
0	0x37a7aebf	1.9989324e-05
1	0xbda34903	-0.0797291
2	0xbccccc11	-0.02499965
3	0x3e951098	0.29114223

encoder1.2.weight f4 [4]
0	0x3e0457dd	0.12924142
1	0x3eeae804	0.4588014
2	0xbe54faec	-0.20798844
3	0x3eb9b579	0.36271265

encoder1.2.bias f4 [4]
0	0x3de4ebde	0.111778006
1	0x3dc65be2	0.09685494
2	0xbc86c462	-0.016451064
3	0x3cc3c012	0.023895297

encoder1.2.running_mean f4 [4]
0	0x3b63660d	0.0034698278
1	0x3bb9f4cf	0.0056749354
2	0x3ad264f2	0.0016051813
3	0x3e948dbe	0.2901439

encoder1.2.running_var f4 [4]
0	0x38d12f98	9.9747616e-05
1	0x3a8ea91d	0.001088414
2	0x38b832e9	8.7832865e-05
3	0x3af419b3	0.0018623382

encoder2.0.weight f4 [8, 4, 3, 3]
0	0x3d2f7f19	0.04284582
1	0x3d746a80	0.05967188
2	0x3d16f0b7	0.036850657
3	0x3c3b9eef	0.011451467
4	0xba0259fb	-0.00049725146
5	0xbc9e2b5c	-0.019307785
6	0xbd52bf02	-0.05145169
7	0xbd377051	-0.044784848
8	0xbba9be34	-0.0051801447
9	0x3b53aa03	0.003229738
10	0x3acda562	0.0015689547
11	0xbbb6c89a	-0.005578113
12	0x3aa51d01	0.0012597145
13	0x3d3b6146	0.045747064
14	0x3c796af3	0.015223253
15	0xbab44ad0	-0.0013755206
16	0x3ccb1ea6	0.024794888
17	0xbc17bcd4	-0.009261329
18	0x3ca8e3b3	0.020616388
19	0x3c15dc7c	0.009146806
20	0x3a3432f0	0.00068740454
21	0xbb29bf85	-0.0025901508
22	0xbb5a7176	-0.0033331788
23	0x3bbd00a7	0.0057679
24	0x3c55e852	0.013055878
25	0x3ce9f1ae	0.028557625
26	0x3cea5807	0.028606428
27	0xbc842a2b	-0.016133389
28	0xbcbe650d	-0.023241544
29	0xbc06a23b	-0.00821739
30	0xbbd368b4	-0.0064516906
31	0x3ccbf442	0.024896745
32	0x3d0d8f8b	0.03456072
33	0x3cf3e650	0.029772907
34	0x3d0fa84c	0.03507261
35	0x3ccbc552	0.024874363
36	0x3c63490f	0.013872399
37	0x3d646901	0.055764202
38	0x3d310623	0.043218743
39	0x3928f7d6	0.00016114055
40	0x3c37a918	0.011209749
41	0x3d39434e	0.045230202
42	0x3c7b3775	0.015333046
43	0x3ca29625	0.019846985
44	0x3d088588	0.03333047
45	0xbc1ad0bf	-0.009449183
46	0x3d34b9c0	0.044122458
47	0x3d1f5c9b	0.038906675
48	0x3ddaac43	0.106773876
49	0x3d3f47cc	0.04669933
50	0xbc0fec49	-0.008784362
51	0xbbf4fbd2	-0.0074763084
52	0xbc525154	-0.012836773
53	0x3b7f928f	0.0038997268
54	0x3c09dbce	0.008414222
55	0x3d254796	0.040351473
56	0x3cf51485	0.029917011
57	0x3de457cc	0.111495584
58	0x3dcba37f	0.09943294
59	0x3cd9e7af	0.026599733
60	0xbcdbfefe	-0.026854988
61	0x3c60a07d	0.013710138
62	0x3d3ad445	0.045612592
63	0x3c3a3f0f	0.011367573
64	0x3c17adf8	0.009257786
65	0x3bae0b36	0.005311395
66	0xba3c077b	-0.00071727455
67	0x3cc0598e	0.023480203
68	0x3c65cfe7	0.014026619
69	0xbcac3231	-0.021020027
70	0x3c35a664	0.011087034
71	0x3cab3af6	0.020902138
72	0x3c5b4ad8	0.013384543
73	0x3da63c69	0.08116991
74	0x3d490ceb	0.049084585
75	0x3db029eb	0.08601745
76	0x3da3ec2d	0.08004031
77	0x3d8f8de5	0.07009486
78	0x3d7f2614	0.062292174
79	0x3d89cc94	0.06728473
80	0x3d4f73ea	0.050647654
81	0x3b48a96f	0.0030618568
82	0x3c2d292f	0.010568901
83	0xbc59fd4b	-0.013305019
84	0x3a875430	0.0010324772
85	0x3c844e24	0.016150542
86	0x3c666841	0.014062942
87	0xbbac999f	-0.0052673365
88	0xbb8c729f	-0.004286125
89	0xbb3659a4	-0.0027824426
90	0x3c4198cf	0.011816218
91	0x3be09e1d	0.006854786
92	0x3c883fe9	0.016632037
93	0xbb95fea5	-0.004577475
94	0x3d3070ce	0.04307633
95	0x3d0116bc	0.03151582
96	0xbbe7e7d4	-0.0070771966
97	0x3d0784a7	0.03308549
98	0x3c8bcd98	0.017065808
99	0xbd34b392	-0.044116564
100	0xbce47512	-0.027887855
101	0x3dfabe4b	0.12243327
102	0xbc726c63	-0.014796349
103	0x3e071f4a	0.1319553
104	0x3dd19f55	0.10235468
105	0x3d63dcbc	0.05563043
106	0x3dd081ac	0.10180983
107	0xbcf0d1ea	-0.02939697
108	0x3cee945b	0.029123476
109	0x3d8514d9	0.06498117
110	0x3d0ebb8a	0.03484682
111	0x3d968141	0.07348872
112	0x3d671c0d	0.056423236
113	0xb9ca6654	-0.00038604683
114	0x3cad931c	0.021188311
115	0xbcb9acbe	-0.022665378
116	0xbbf74ff8	-0.007547375
117	0x3c3e0064	0.011596773
118	0x3c00faa4	0.007872257
119	0x3c84783a	0.01617061
120	0x3d6b286c	0.057411596
121	0x3b6efea6	0.00364677
122	0xbc1cdc54	-0.009574015
123	0x3ca588e4	0.020206876
124	0xbd0c8a56	-0.034311615
125	0xbc497894	-0.0122968145
126	0x3cf75328	0.03019102
127	0x3c8bc516	0.017061751
128	0xbba8f1cb	-0.005155777
129	0x3d8f50a9	0.069978066
130	0x3c9f0a6f	0.019414155
131	0xbb5e2ff1	-0.0033903087
132	0x3ce435a0	0.027857602
133	0xbc4570d0	-0.012050822
134	0xbbb437fe	-0.005499839
135	0x3d1d14ab	0.03834979
136	0x3de0ed2b	0.10982736
137	0x3dd3cb6a	0.103415325
138	0x3dacd146	0.08438353
139	0xbc883f7a	-0.01663183
140	0xbdc2c41f	-0.095100634
141	0xbd4b9402	-0.049701698
142	0xbd76ef61	-0.060286883
143	0xbcb15bf7	-0.021650298
144	0xbd3529bc	-0.044229254
145	0x3b5939ff	0.003314614
146	0x3bf876b9	0.007582512
147	0x3d5908a7	0.052986767
148	0x3d67fcb3	0.056637477
149	0x3cb7987c	0.022411577
150	0x3bceaf58	0.0063075237
151	0xbd9c4362	-0.0763004
152	0xbd8d34fe	-0.06894873
153	0x3c658319	0.014008307
154	0xbaa0887e	-0.0012247709
155	0xbc8b4148	-0.016998902
156	0xbc11a644	-0.0088897385
157	0xbb1cfd0a	-0.0023954534
158	0x3c3205cd	0.010865641
159	0x3c36816a	0.011139253
160	0x3d2cfec6	0.04223516
161	0x3dc0a2f8	0.09406084
162	0xbbc45ecf	-0.0059927474
163	0x3cf6cef8	0.030127987
164	0x3c591ff6	0.013252249
165	0x3d0ada6b	0.033899706
166	0x3d495a6d	0.049158502
167	0xbc3eeac3	-0.011652651
168	0xbc5605dd	-0.013062921
169	0x3c50ace0	0.012736529
170	0x3bc6af03	0.0060633435
171	0x3c35926e	0.011082275
172	0xb9f85033	-0.00047362
173	0xbc021a51	-0.007940845
174	0xbcb69eaa	-0.022292454
175	0xbbe4d68d	-0.0069835843
176	0x3ae9919d	0.0017819885
177	0xbcab414b	-0.020905158
178	0x3cb15dd4	0.021651186
179	0x3d20cfeb	0.039260786
180	0xba8c3a26	-0.0010698482
181	0x3be86dd0	0.007093169
182	0x3b52bd7a	0.0032156394
183	0x3db310e7	0.08743458
184	0x3d11c4df	0.03558814
185	0x3d3d8d11	0.04627711
186	0x3d152bfc	0.0364189
187	0x3da2a936	0.07942431
188	0x3d7bcd95	0.061475355
189	0xbbf824be	-0.0075727394
190	0xbb0b9318	-0.0021297392
191	0xbb533cc3	-0.0032232262
192	0xbc51d8db	-0.01280805
193	0x3bb4c6d8	0.005516868
194	0x3b8bdf07	0.0042685303
195	0x3bbe72f7	0.0058120447
196	0x3cf8cf7a	0.03037237
197	0x3ce290b3	0.027656889
198	0x3c7cabfd	0.015421865
199	0x3d0a2b41	0.033732656
200	0x3d00ed73	0.03147645
201	0xbb895179	-0.0041906205
202	0x3c52cb4b	0.012865852
203	0xbca34d9e	-0.019934472
204	0x3bf5beb7	0.0074995416
205	0xbc288de5	-0.010287737
206	0xbca3e792	-0.020007882
207	0x3d8f868d	0.070080854
208	0x3d56e105	0.05246069
209	0xbd101760	-0.035178542
210	0x3b1f7c9a	0.0024335743
211	0x3e0c0da4	0.13677078
212	0x3d8a0356	0.067389175
213	0xbd830ed0	-0.0639931
214	0x3b8131e2	0.003942714
215	0x3de95336	0.11392824
216	0x3d60738b	0.05479769
217	0x3d6dd5d4	0.05806525
218	0x3c93faa2	0.018063847
219	0x3d218852	0.039436646
220	0x3cde4c2a	0.027135927
221	0x3c53d70b	0.012929688
222	0x3d0a6051	0.03378326
223	0x3d13e826	0.036110066
224	0x3ca49ac9	0.020093339
225	0xbbdeafbe	-0.0067958524
226	0xbc7e6396	-0.015526673
227	0xbc82bff5	-0.015960673
228	0x3d58f58e	0.052968554
229	0xbd31ad64	-0.04337825
230	0xbd5577b2	-0.052116103
231	0xbb8fdde1	-0.0043904637
232	0xbd1b2c9f	-0.03788435
233	0xbd118cf6	-0.03553482
234	0xbc835b58	-0.016034767
235	0xbd609dc1	-0.054837946
236	0xbd187c4f	-0.037227925
237	0x3ccdad4b	0.025107047
238	0xbe0726c1	-0.13198377
239	0xbe088f29	-0.13335861
240	0x3c4b4702	0.012407066
241	0xbdda8a11	-0.10670865
242	0xbdde00c7	-0.10839992
243	0x3d3491db	0.04408441
244	0x3cf014c7	0.029306782
245	0xbcec6cf9	-0.028860556
246	0x3d323829	0.04351059
247	0x391808b7	0.00014499096
248	0xbd23c1de	-0.039979808
249	0xbcc1cdbe	-0.023657676
250	0xbcb397de	-0.021923002
251	0x3bd99ed6	0.006641249
252	0x3c70000a	0.014648447
253	0x3d0b4878	0.03400466
254	0x3cd6a833	0.02620325
255	0x3ca94b27	0.020665718

encoder2.0.bias f4 [8]
0	0xbc8a8df2	-0.016913388
1	0xbc99f848	-0.018795148
2	0xbd572bff	-0.052532192
3	0xbda0c911	-0.078508504
4	0xba6990d9	-0.00089098286
5	0xbd8eae3b	-0.069668256
6	0x3e5d1163	0.21588664
7	0x3d2766e9	0.040869627

encoder2.2.weight f4 [8]
0	0x3e7a2c5d	0.24430986
1	0x3e7d06b9	0.24709596
2	0x3ec617e1	0.38690093
3	0x3ec72aaf	0.38899752
4	0x3e8f615d	0.2800397
5	0x3e94ccb5	0.2906243
6	0x3eafd189	0.3433955
7	0x3ee07199	0.43836668

encoder2.2.bias f4 [8]
0	0xbbc23405	-0.0059266114
1	0xbbf2c0b6	-0.007408227
2	0x3dac328b	0.08408078
3	0x3d9f833d	0.077887036
4	0x3d0ea3b7	0.0348241
5	0x3d53fc6f	0.05175441
6	0x3c5048f5	0.012712707
7	0x3be3aad3	0.006947854

encoder2.2.running_mean f4 [8]
0	0x3c14443d	0.009049472
1	0x3cc606fa	0.024173249
2	0x3d0bd64e	0.034139924
3	0x3c84032e	0.016114797
4	0x3c69edad	0.014277858
5	0x3cc2aa94	0.023762979
6	0x3e78cfd4	0.2429803
7	0x3db27dc6	0.08715396

encoder2.2.running_var f4 [8]
0	0x3abfd8d2	0.0014636761
1	0x3b1f40c0	0.0024300069
2	0x3c1410c7	0.009037203
3	0x3b9a0ab0	0.004700981
4	0x3b63178e	0.003465149
5	0x3c0a0773	0.008424628
6	0x3b866875	0.0041018077
7	0x3c0cdb28	0.008597173

encoder3.0.weight f4 [16, 8, 3, 3]
0	0x3c807c54	0.015684284
1	0x3cb630a2	0.022239987
2	0x3a53fbc3	0.00080865267
3	0x3d063136	0.032761775
4	0x3d4d603a	0.050140597
5	0x3cecc829	0.028904038
6	0x3cf621e1	0.030045452
7	0x3d0c3160	0.034226775
8	0x3c82c015	0.015960732
9	0x3b2f41f1	0.0026742185
10	0x3c16f60b	0.009213935
11	0x3c4113ca	0.011784503
12	0xbc87f7e7	-0.016597701
13	0xbba4c7f1	-0.0050287177
14	0x3c842a24	0.016133375
15	0xbc8164bb	-0.015795102
16	0xbd11c122	-0.035584576
17	0xbd06677f	-0.032813545
18	0xbc90fc47	-0.01769842
19	0xbcf7c667	-0.030245973
20	0xbc00bf26	-0.007858073
21	0xbd0e87fb	-0.03479765
22	0xbd66dd60	-0.056363463
23	0xbd175af4	-0.036951974
24	0xbcd23b8b	-0.025663158
25	0xbd094896	-0.03351649
26	0xbcfd9b99	-0.030957984
27	0x3bad5937	0.0052901763
28	0x3bc9318e	0.0061399406
29	0x3a9fbcc8	0.0012186999
30	0xba5340a8	-0.0008058646
31	0xbbc7821a	-0.0060885074
32	0xbade25b1	-0.0016948489
33	0xbb015b5d	-0.0019738295
34	0xbab2be7f	-0.0013637095
35	0x3bedd3cc	0.007257914
36	0x3c59b764	0.013288353
37	0x3c671b6c	0.014105659
38	0x3bb33afa	0.005469677
39	0x3c817be3	0.015806144
40	0x3cdce45f	0.026964365
41	0x3c703f89	0.014663585
42	0x3cac5d9b	0.021040728
43	0x3c700946	0.014650648
44	0xbcc25b14	-0.02372507
45	0x3c0f0bf8	0.008730881
46	0xbb239ba5	-0.0024964598
47	0xbbf754a8	-0.0075479336
48	0x3c0a17de	0.008428542
49	0xbb6773ed	-0.00353169
50	0xbcd17a74	-0.025571086
51	0xbc665434	-0.0140581615
52	0xbc0aa11f	-0.008461266
53	0xbb8bcf0c	-0.0042666253
54	0xbba88bb8	-0.005143609
55	0xbb10d592	-0.0022099954
56	0x3b6faebf	0.0036572663
57	0x3c8961a6	0.016770195
58	0x3cfd983c	0.03095638
59	0x3b9e9c83	0.004840435
60	0x3cc9b8a2	0.024624173
61	0x3d048e12	0.03236205
62	0xbb5ebba0	-0.0033986345
63	0x3c9150a6	0.017738651
64	0xbbbdbe53	-0.0057905107
65	0xbd0d6fda	-0.034530498
66	0x3ca2832e	0.019837942
67	0xbcbc0dfa	-0.022955883
68	0xbd76b0ed	-0.060227323
69	0xba9fde65	-0.0012197016
70	0x3d6ea664	0.05826415
71	0x3d87c65c	0.06629631
72	0x3c4cac49	0.012492248
73	0x3b2ad1ef	0.0026065072
74	0xbbc00797	-0.00586028
75	0x3c14626d	0.00905667
76	0x3afc9aa5	0.0019272162
77	0xbc14cc70	-0.009081945
78	0x3b1cb847	0.0023913549
79	0x3b9f244b	0.0048566214
80	0xbacca080	-0.0015611798
81	0xbc292e81	-0.010326029
82	0xbd05d150	-0.03267032
83	0xbcbde163	-0.023178762
84	0xbd2b64f6	-0.04184433
85	0xbdaafb11	-0.08348668
86	0xbd47d1e3	-0.048784148
87	0xbd23c7a4	-0.039985314
88	0xbd80c89a	-0.06288262
89	0xbd09715a	-0.033555366
90	0x3bd93e71	0.006629758
91	0x3c03a618	0.008035205
92	0x3b803618	0.0039126985
93	0x3c5d47f3	0.013505924
94	0x3cef1c47	0.029188288
95	0x3cfefdd6	0.031126898
96	0x3c86a6ad	0.0164369
97	0x3d03740a	0.032093085
98	0x3d033665	0.032034297
99	0x3c2d2acd	0.0105692865
100	0x3c47d15c	0.012195911
101	0x3b197033	0.0023412823
102	0x3c757a30	0.014982745
103	0x3c615d4d	0.013755155
104	0x3b43d51c	0.0029881662
105	0x3bbac9e5	0.0057003372
106	0x3bee276c	0.007267883
107	0x3b323dbf	0.0027197448
108	0xbc50b573	-0.012738573
109	0xbb8c939a	-0.0042900564
110	0x3c52a7e8	0.012857415
111	0xbbd71bbd	-0.006564586
112	0x3c051b2f	0.008124157
113	0x3c8db056	0.017295998
114	0x3bd615d6	0.0065333648
115	0x3c28542b	0.010273973
116	0x3b59832d	0.003318976
117	0xbbea63c8	-0.007153008
118	0xbbb5378f	-0.0055303047
119	0x3b8ab5e6	0.0042331098
120	0x3b1000f2	0.002197322
121	0xbbda7d0b	-0.0066677383
122	0x3bbea67c	0.0058181863
123	0x3c62130a	0.013798485
124	0x3b12d33f	0.0022403745
125	0xbb3403bc	-0.0027468046
126	0xbbf10035	-0.007354761
127	0xbb434f12	-0.0029801768
128	0x3b5c67b5	0.003363115
129	0x3cbf7659	0.023371862
130	0x3d4775c2	0.048696287
131	0x3d170223	0.036867272
132	0x3d142dc6	0.036176465
133	0x3d67fe3d	0.056638945
134	0x3d1e2ff8	0.038619965
135	0x3c5a60c0	0.013328731
136	0x3ad11457	0.0015951496
137	0x3b99ce07	0.00469375
138	0xbba303c4	-0.004974814
139	0xbce180a4	-0.027527161
140	0xbb149f9a	-0.0022678138
141	0xbc24a919	-0.010050082
142	0xbcd37dcd	-0.025816822
143	0xbc14230d	-0.00904156
144	0xba8c414e	-0.0010700615
145	0x3cbe9566	0.023264598
146	0x3cb60418	0.022218749
147	0x3ce52840	0.027973294
148	0x3d840880	0.06446934
149	0x3d17e5a3	0.037084233
150	0x3c8fc80e	0.017551448
151	0x3d184bfd	0.037181843
152	0x3ca62945	0.02028335
153	0xbc3e049c	-0.011597779
154	0x3cc00be3	0.023443168
155	0x3ceca37d	0.028886551
156	0x3d01362a	0.031545796
157	0x3da2c4bb	0.079476796
158	0x3d509957	0.050927486
159	0x3cfb65d0	0.030688196
160	0x3d414f33	0.04719467
161	0x3cc49f22	0.024001662
162	0xbca232e7	-0.019799663
163	0xbc71e512	-0.014764087
164	0x3af89ac9	0.0018967028
165	0xbc5cbca8	-0.0134727135
166	0xbd3b95ab	-0.04579703
167	0xbc4379a9	-0.0119308615
168	0x3b988230	0.0046541914
169	0xbd2f97c0	-0.04286933
170	0xbcf65a83	-0.030072456
171	0xbb8f930a	-0.004381542
172	0xbc0f688d	-0.008752954
173	0x392df590	0.00016590045
174	0xbc07244d	-0.008248401
175	0xbc870342	-0.016481046
176	0xbc26ca8f	-0.01018013
177	0xbbf65b4a	-0.0075182067
178	0xbc659205	-0.014011865
179	0xbc5377f3	-0.012907016
180	0x3c23ed01	0.010005237
181	0x3d0958cf	0.03353196
182	0x3c9cf3b0	0.019159168
183	0x3d23fb48	0.040034562
184	0x3d53146b	0.051533144
185	0x3cc6d0a3	0.024269408
186	0x3ce4d75d	0.027934724
187	0x3c7c0a9f	0.015383392
188	0x3bfcced6	0.0077150865
189	0x3ba9afaf	0.005178414
190	0x394fd08b	0.00019818747
191	0xbae579c5	-0.0017507604
192	0xbaa2c88d	-0.0012419388
193	0xbc6c90c5	-0.014438813
194	0xbb9a31b2	-0.004705631
195	0xbc8fafde	-0.017539915
196	0xbd1044e1	-0.035221938
197	0xbc9900bf	-0.018677114
198	0x38f32427	0.00011593877
199	0x3b935ff2	0.0044975216
200	0xbaf6897c	-0.0018809284
201	0xbb822435	-0.0039716014
202	0xbcbbcee7	-0.022925807
203	0xbba7f564	-0.0051256884
204	0x3ba2e36b	0.004970958
205	0xbca83445	-0.020532737
206	0xbc04b65f	-0.008100121
207	0x3966015a	0.00021935013
208	0x3bb59025	0.005540865
209	0xbb125c6e	-0.0022332924
210	0x3d048bb5	0.032359798
211	0xbb771f4c	-0.0037707863
212	0xbc471481	-0.012150885
213	0x3c4858a1	0.012228162
214	0xbd07b84f	-0.033134755
215	0xbbb4b81b	-0.005515111
216	0xbb1642a3	-0.0022927902
217	0xbb1418a6	-0.00225977
218	0xbb164f5d	-0.0022935488
219	0xba2b775a	-0.0006540917
220	0xbbbc6708	-0.005749587
221	0xbb973b87	-0.0046152505
222	0x3b90723c	0.004408149
223	0x3a5c5b19	0.00084059086
224	0xba9792ca	-0.0011564132
225	0xbb68b518	-0.003550833
226	0xbbde2446	-0.0067792265
227	0xbb350106	-0.0027619018
228	0xbbbf909b	-0.0058460957
229	0xbc860b18	-0.016362712
230	0xbc1479ea	-0.00906227
231	0xbb875c53	-0.004130879
232	0xbc9c13eb	-0.019052466
233	0xbcb55cd4	-0.02213899
234	0x3b754423	0.0037424646
235	0xbb27f753	-0.0025629594
236	0xbc0250f6	-0.007953873
237	0xbb2f5441	-0.00267531
238	0xbd02d83b	-0.031944495
239	0xbd0c87ed	-0.034309316
240	0xbbe7c2a7	-0.007072765
241	0xbd1d3e0c	-0.03838925
242	0xbce825ba	-0.028338302
243	0x3b4d6fcb	0.0031347151
244	0x3c06d713	0.008229989
245	0x3adc6bf0	0.0016816836
246	0x3c29b1ec	0.010357361
247	0x3d033c6b	0.03204004
248	0x3cbdfc66	0.023191642
249	0x3bd520c3	0.0065041496
250	0x3ce9ffb7	0.028564317
251	0x3cf3fc02	0.029783253
252	0xbb8eeefe	-0.004361986
253	0xbc9b1f40	-0.0189358
254	0xbc991fdf	-0.018691955
255	0xbc2a0f69	-0.010379651

encoder3.0.bias f4 [16]
0	0x3ca4b900	0.020107746
1	0x3d87ce0e	0.06631099
2	0x3e163894	0.1467002
3	0x3d2915d9	0.0412806
4	0xbb5edee7	-0.0034007372
5	0x3b050337	0.0020296106
6	0x3da39524	0.07987431
7	0xbb50b4d4	-0.0031846063
8	0x3d57da58	0.052698463
9	0xbd35d1f4	-0.04438968
10	0xbc0ae5eb	-0.008477668
11	0x3bb81854	0.0056181345
12	0x3c85eb12	0.016347442
13	0x3cd942d7	0.02652113
14	0x3e283fd0	0.16430593
15	0x3bcba824	0.0062151123

encoder3.2.weight f4 [16]
0	0x3e39ba5c	0.18137497
1	0x3e5883e2	0.2114406
2	0x3e61d5df	0.22054242
3	0x3e61d03c	0.22052091
4	0x3e553bc8	0.20823586
5	0x3e438bd9	0.19096316
6	0x3e8116cf	0.25212714
7	0x3e0f86ec	0.14016312
8	0x3e139e71	0.1441591
9	0x3e1b9ed6	0.1519731
10	0x3e836e36	0.25670022
11	0x3e046a63	0.12931208
12	0x3e811c62	0.25216967
13	0x3e777842	0.24166968
14	0x3eb4e9ed	0.3533472
15	0x3e03ba02	0.12863925

encoder3.2.bias f4 [16]
0	0x3d19e5e7	0.037572768
1	0x3da4d9dd	0.080493666
2	0x3dbc5388	0.0919562
3	0xbdc46730	-0.09589994
4	0x3da499a5	0.08037118
5	0x3c7c44cd	0.015397263
6	0x3ce5760f	0.028010396
7	0x3b290624	0.0025791014
8	0x3d076189	0.033052
9	0x3ca09725	0.019603321
10	0x3d957eb7	0.072995596
11	0x3cd396ef	0.025828807
12	0xbd26d97c	-0.040734753
13	0x3d37252a	0.044713177
14	0x3d58c199	0.052919004
15	0x3d6dd8c6	0.05806806

encoder3.2.running_mean f4 [16]
0	0x3c7efcb7	0.015563182
1	0x3dbf5db6	0.09344046
2	0x3e000fbc	0.12506002
3	0x3d6d6b69	0.057963762
4	0x3c9adbc9	0.01890363
5	0x3cf18ced	0.029486144
6	0x3dd5b4f9	0.104349084
7	0x3ca2596b	0.019818028
8	0x3d73929d	0.059465993
9	0x3c9c37c6	0.019069564
10	0x3c6baeef	0.014384969
11	0x3cb14f80	0.021644354
12	0x3d00aa48	0.031412393
13	0x3d6ac14c	0.05731325
14	0x3e4e4963	0.20145182
15	0x3c974619	0.018466042

encoder3.2.running_var f4 [16]
0	0x3aba61ff	0.0014219879
1	0x3b42a138	0.0029698145
2	0x3b199a1a	0.00234378
3	0x3aace670	0.0013191234
4	0x3b1a3550	0.0023530312
5	0x3b0112a2	0.0019694944
6	0x3c010390	0.0078743845
7	0x3a3b8528	0.0007153326
8	0x3b0a175f	0.002107106
9	0x3af09748	0.0018355632
10	0x3b039963	0.002008044
11	0x3a9cb472	0.0011955632
12	0x3ba360b7	0.0049858945
13	0x3ae2ba1e	0.0017297899
14	0x3bb63758	0.0055607967
15	0x3a8fbad3	0.0010965712

encoder4.0.weight f4 [32, 16, 3, 3]
0	0x3a102809	0.000549913
1	0x3c741263	0.014896962
2	0x3cb1c09c	0.021698289
3	0x3baaad39	0.005208638
4	0x3cf26e36	0.029593568
5	0x3d0365d6	0.03207954
6	0x3c5b690b	0.013391743
7	0x3cee1dbf	0.029066918
8	0x3c943203	0.018090254
9	0x3c0c6479	0.008568876
10	0xbb0821d0	-0.0020772107
11	0xbc56c57b	-0.013108606
12	0xbc62f591	-0.013852493
13	0xbcbf5090	-0.023353845
14	0xbbb0ba76	-0.0053933216
15	0xbce7d456	-0.028299492
16	0xbccdd978	-0.025128111
17	0x3b845633	0.004038596
18	0x3be8acd3	0.0071006804
19	0x3bf55d81	0.007487953
20	0x3a1b9b19	0.0005935892
21	0x3bd101d8	0.0063783936
22	0x3cd87a7c	0.026425593
23	0x3cf0754d	0.029352808
24	0xbb95d3c2	-0.0045723626
25	0x3cae9d55	0.021315256
26	0x3ccd5bf2	0.025068257
27	0x3bee5c81	0.007274211
28	0xbb143675	-0.0022615467
29	0x3b00ee0d	0.001967314
30	0xba4c9984	-0.0007804858
31	0xbcb8d1a4	-0.022560902
32	0xbcab655c	-0.020922355
33	0x3b9f31ff	0.004858255
34	0xbcf35607	-0.029704107
35	0xbbfa5099	-0.0076390025
36	0xbb150c41	-0.00227429
37	0xbc296409	-0.010338792
38	0x3b2eb925	0.0026660648
39	0xbc46d243	-0.012135091
40	0xbca76d00	-0.020437717
41	0xbc15c77e	-0.009141801
42	0xbc82d54e	-0.015970852
43	0xbc84dd06	-0.016218673
44	0xbb9d57cd	-0.0048017264
45	0xbb2e5976	-0.0026603616
46	0x3c99fbcf	0.01879683
47	0x3cac3f1c	0.021026187
48	0xbc96b7f9	-0.018398272
49	0xbb44f93f	-0.0030055789
50	0x3cc30dca	0.023810286
51	0xbc836ebb	-0.016044011
52	0xbc81bca1	-0.015837016
53	0x3aad7e50	0.0013236497
54	0x3a58f83b	0.00082767353
55	0x3ad60e55	0.0016331176
56	0x3c0646d4	0.008195598
57	0x3c320165	0.01086459
58	0x3d36072e	0.04444044
59	0x3d2563b2	0.04037828
60	0x3c3179ce	0.010832263
61	0x3d0d37a6	0.0344769
62	0x3c9c5c39	0.019086944
63	0xbc08ca5a	-0.008349026
64	0xbc4e2ae3	-0.012583467
65	0x3bacab8b	0.005269473
66	0xbc8595c9	-0.016306775
67	0xbcd894e4	-0.026438184
68	0xbca5dcac	-0.020246826
69	0xbc15445d	-0.009110537
70	0xbcb8045e	-0.02246302
71	0xbc49c932	-0.012316035
72	0x3bae3aee	0.0053170836
73	0xbb547022	-0.003241547
74	0xbba992a8	-0.0051749535
75	0x3b1cd4e0	0.0023930594
76	0xbb17cb91	-0.0023162107
77	0xbbe30d2e	-0.0069290614
78	0xbbd6f2f7	-0.0065597254
79	0x3b4c5ee0	0.003118448
80	0x3b37bab5	0.002803487
81	0x3aa25401	0.0012384654
82	0x3bf8ed87	0.007596675
83	0x3c0ad21b	0.008472945
84	0x3ba52da6	0.005040842
85	0x3c596d47	0.013270683
86	0x3c816e87	0.015799774
87	0xb8d55241	-0.000101719525
88	0x3c47dd0f	0.012198701
89	0x3c4026e9	0.011728027
90	0x3a8e6b03	0.0010865632
91	0xbc1a3f6c	-0.009414535
92	0xbc4a2a93	-0.012339252
93	0x39a0ec04	0.00030693423
94	0x3c4ed2c2	0.012623491
95	0x3c2f3cc9	0.010695645
96	0xbb34eefb	-0.0027608264
97	0x3c62678c	0.013818633
98	0x3c5f49c0	0.013628423
99	0xb8c463dc	-9.3646086e-05
100	0x3c39eab8	0.011347465
101	0x3c5beb70	0.013422832
102	0x3ae177d0	0.0017201845
103	0x3c9ece36	0.019385438
104	0x3caa1923	0.02076394
105	0x3bd2a99d	0.006428911
106	0x3c38e72d	0.011285585
107	0x3c5c69de	0.013452975
108	0xbc39d119	-0.011341357
109	0xbb579d40	-0.0032900125
110	0x3bb6f2a7	0.0055831256
111	0xbd051829	-0.032493744
112	0xbc854abf	-0.016270993
113	0x3ca2bb76	0.019864779
114	0xbc2e960a	-0.010655889
115	0xbaeba6aa	-0.0017978747
116	0x3c02e527	0.0079892045
117	0xbba434f7	-0.0050111967
118	0xbbb2ae82	-0.005452932
119	0xbaba355a	-0.0014206574
120	0x38e582f5	0.000109439636
121	0x3bbae899	0.0057039973
122	0x3aad9696	0.0013243731
123	0xbb2aea10	-0.0026079454
124	0x3c029edf	0.007972448
125	0x3bc83e52	0.006110945
126	0xbbad3104	-0.005285384
127	0xbc005a71	-0.007834063
128	0xbc139088	-0.009006627
129	0xbc60a71a	-0.013711715
130	0xbc8b0907	-0.016972078
131	0xbc240c36	-0.010012677
132	0xbc95be8b	-0.018279335
133	0xbc38c0e0	-0.011276454
134	0x3b048791	0.0020222405
135	0xb9195ecc	-0.00014626532
136	0x3bbf1d92	0.0058323825
137	0x3c44afe1	0.012004823
138	0xbb4ca626	-0.0031226962
139	0x3b1f96fb	0.0024351466
140	0x3c1dc086	0.009628421
141	0x3b68f4cc	0.00355463
142	0xbc2c808e	-0.010528697
143	0xbb224b15	-0.002476399
144	0x3bc1e9dd	0.0059177713
145	0xb9e9561d	-0.00044505383
146	0x3b4d47a8	0.0031323228
147	0x3c64982d	0.013952297
148	0x3c61f65b	0.013791646
149	0x3a978736	0.0011560682
150	0xbc000f50	-0.007816151
151	0x3ca889d4	0.020573534
152	0x3c428a5c	0.011873808
153	0xbca36b3b	-0.019948592
154	0xbd018df1	-0.031629506
155	0xbaecf6f1	-0.0018078965
156	0xbd2ee21a	-0.042696096
157	0xbd9ffb6a	-0.07811625
158	0xbcf8a3ec	-0.030351602
159	0xbd15bae2	-0.03655518
160	0xbd7708bd	-0.060311068
161	0xbd017300	-0.031603813
162	0xba7827aa	-0.00094663596
163	0x3bee2e76	0.007268722
164	0x3b57123a	0.003281726
165	0x3c405c7e	0.011740802
166	0x3ce7c931	0.028294178
167	0x3ce72ec7	0.028220547
168	0x3c3a1ed9	0.011359894
169	0x3cc6a7bb	0.024249902
170	0x3cd6fcf5	0.026243666
171	0xbba8f173	-0.005155736
172	0x3c1d8f5b	0.009616698
173	0x3cb77b3a	0.022397626
174	0xbc21e538	-0.00988131
175	0xbc26b16b	-0.010174136
176	0x3b92cd4f	0.004480041
177	0x3c16d739	0.0092065865
178	0xbc02d402	-0.007985117
179	0xbc29a4b0	-0.010354206
180	0xbc1c7d7b	-0.009551401
181	0xbb861c03	-0.0040926947
182	0x3b89a085	0.0042000436
183	0xbc45f61f	-0.012082606
184	0xbc3c3377	-0.01148688
185	0xbbfc786f	-0.0077047865
186	0xbc81e411	-0.01585582
187	0x3b93b879	0.004508075
188	0x3b12918a	0.002236458
189	0xba4f6bed	-0.00079125055
190	0xbc7c3f05	-0.015395884
191	0xbc57375e	-0.013135759
192	0xbb8bde4e	-0.004268444
193	0xbc77e928	-0.015131272
194	0xbca97fd9	-0.020690845
195	0xbc3740a5	-0.011184846
196	0x39f9443b	0.00047543817
197	0xbbabc042	-0.005241425
198	0xbbea04e0	-0.0071416944
199	0x3b858afd	0.0040754066
200	0x3bf85717	0.0075787413
201	0xbc0e43d0	-0.00868316
202	0xbcd64228	-0.026154593
203	0xbbac6b9c	-0.0052618515
204	0x3ca9037f	0.02063155
205	0xbc5b8125	-0.01339749
206	0xbcced32c	-0.025247179
207	0xbc57377d	-0.013135788
208	0xbcafa41a	-0.021440554
209	0xbc4c95a1	-0.012486846
210	0xbc0e3133	-0.008678722
211	0xbc98c218	-0.018647239
212	0xbc806895	-0.015674869
213	0x3b5faf18	0.0034131464
214	0x3948a838	0.00019136153
215	0xbbfc5379	-0.0077003804
216	0x3c00c1db	0.007858719
217	0x3c674713	0.0141160665
218	0x3bfad6de	0.0076550087
219	0x3baea824	0.0053301025
220	0x3cae979e	0.021312531
221	0x3ca71ebd	0.0204004
222	0x3c85bd96	0.016325753
223	0x3c4286af	0.011872931
224	0x3c38ba54	0.011274893
225	0x3b1ecc37	0.0024230608
226	0x3b9488a2	0.0045328895
227	0x3aefdca2	0.0018300007
228	0x3bd595d7	0.0065181064
229	0x3c3fd322	0.011708053
230	0x3bce17f6	0.0062894775
231	0x3ba4aa40	0.005025178
232	0x3bc27b2f	0.005935095
233	0xbb13539d	-0.0022480257
234	0x3c9539d9	0.01821606
235	0x39fb073e	0.00047879847
236	0xbb993b01	-0.0046762233
237	0x3cf456e3	0.029826587
238	0x3cde6c0a	0.027151126
239	0xb8d98ce1	-0.00010373607
240	0x3c2d4fde	0.010578124
241	0x3cd03e4d	0.025420332
242	0x3c7585e7	0.014985538
243	0xbbfc3dd6	-0.007697801
244	0xbc0fd402	-0.008778574
245	0xbb07075a	-0.0020603747
246	0xbc5db7a2	-0.013532551
247	0xbc85591a	-0.016277838
248	0xbb2731de	-0.00255119
249	0xbb8b7edb	-0.0042570657
250	0xbb612815	-0.0034356166
251	0xbbad113e	-0.0052815964
252	0x3c4f4e17	0.012652895
253	0xbb5f00d2	-0.0034027589
254	0xbc2b0dfb	-0.010440345
255	0x3c51d1fd	0.012806413

encoder4.0.bias f4 [32]
0	0x3d874df3	0.066066645
1	0x3d207224	0.039171353
2	0xbd2027e1	-0.03910053
3	0xbc5d0393	-0.013489622
4	0x3c88031e	0.016603049
5	0x3cb63d2c	0.022245966
6	0x3d6ec457	0.058292713
7	0x3d024b3c	0.03181003
8	0x3cc504cb	0.024050137
9	0x3d23185c	0.039818153
10	0x3cf539b2	0.029934738
11	0xbc192646	-0.009347504
12	0xbc69656c	-0.014245372
13	0x3cb1d242	0.021706704
14	0x3c28d8ce	0.0103055965
15	0x3d5cc61a	0.053899862
16	0xbb8c62c4	-0.0042842347
17	0xbc2dd62d	-0.0106101455
18	0x3c9f1c73	0.019422745
19	0xbbf877dc	-0.0075826477
20	0x3c9c2ad3	0.019063389
21	0x3d286a02	0.041116722
22	0x3da71d4f	0.08159887
23	0x3a1c1ee7	0.00059555325
24	0x3d708006	0.058715843
25	0xbb3836f0	-0.0028108917
26	0x3c9cbf78	0.019134268
27	0x3cc43365	0.023950288
28	0x3c9d48cf	0.019199757
29	0x3d69a0fa	0.057038285
30	0x3cce8611	0.025210412
31	0xba1f2e07	-0.0006072227

encoder4.2.weight f4 [32]
0	0x3d9d5de8	0.07683927
1	0x3dc730ed	0.09726129
2	0x3dc35f95	0.09539715
3	0x3d5e5035	0.05427571
4	0x3da0e19d	0.07855532
5	0x3dad746b	0.084694706
6	0x3dd03af1	0.10167492
7	0x3da24950	0.079241395
8	0x3db8fdba	0.090327695
9	0x3db5a7fc	0.08869931
10	0x3d87fd4d	0.0664011
11	0x3db178a1	0.08665586
12	0x3e0ea09e	0.13928458
13	0x3e17b3ab	0.14814632
14	0x3d3cf16c	0.046128675
15	0x3e2fc8a7	0.17166387
16	0x3da842e7	0.082158856
17	0x3d635b7b	0.055507164
18	0x3d882e8d	0.06649504
19	0x3e0718aa	0.13193002
20	0x3da1d257	0.07901447
21	0x3e7151bb	0.23566334
22	0x3da52f9f	0.08065724
23	0x3d7f73bd	0.062366236
24	0x3d766269	0.060152445
25	0x3da20edc	0.079129905
26	0x3e1572cb	0.14594571
27	0x3deb4c0d	0.11489115
28	0x3dabe311	0.08392919
29	0x3e2477c4	0.16061312
30	0x3d99adb7	0.075038366
31	0x3d55832e	0.052127056

encoder4.2.bias f4 [32]
0	0xb9ed7550	-0.00045291567
1	0xbcf88064	-0.030334659
2	0x3db6b0fd	0.089204766
3	0xbd3ad618	-0.045614332
4	0x3ce3ed89	0.027823227
5	0x3caed24f	0.021340517
6	0x3d759e08	0.059965163
7	0x3c9846e2	0.018588487
8	0xbae0b009	-0.0017142306
9	0x3c7d1df3	0.015449035
10	0xbd34765f	-0.0440582
11	0x3d148697	0.036261167
12	0x3c8d91b8	0.017281398
13	0xbd43aaa7	-0.04777017
14	0xbc3f26bf	-0.011666953
15	0x3d85e1ef	0.06537234
16	0x3cf3cbc5	0.02976025
17	0xbc0c9b78	-0.0085819885
18	0x3d275b6b	0.040858667
19	0x3c80c4f1	0.015718909
20	0x3cf8a923	0.030354088
21	0x3d8e89db	0.069598876
22	0x3cae75b2	0.021296356
23	0x3c6f78f1	0.014616237
24	0x3e27820a	0.163582
25	0x3d2d0553	0.042241406
26	0x3d4e02e1	0.050295714
27	0xbaf4fe96	-0.0018691595
28	0xbd29b212	-0.041429587
29	0xbdb3a929	-0.08772499
30	0xbc90c803	-0.017673498
31	0xbd432f90	-0.04765278

encoder4.2.running_mean f4 [32]
0	0x3dacfc71	0.08446587
1	0x3d3eb1c2	0.04655624
2	0x3c998b73	0.018743252
3	0x3bbb2e5c	0.0057123136
4	0x3cbb00de	0.022827562
5	0x3c9363f6	0.017992001
6	0x3da3ac2f	0.07991826
7	0x3cef727b	0.029229393
8	0x3cb70bd5	0.02234451
9	0x3d35f49e	0.04442274
10	0x3d27f178	0.041001767
11	0x3c02b1c9	0.007976958
12	0x3b9aa96d	0.004719904
13	0x3c6099e1	0.013708563
14	0x3c8c59fd	0.017132754
15	0x3d801b1d	0.062551714
16	0x3c4d1fe7	0.012519813
17	0x3bca77ed	0.006178847
18	0x3cbf2bf8	0.023336396
19	0x3c3e1b68	0.011603214
20	0x3d011dd3	0.031522583
21	0x3db1ff52	0.086912766
22	0x3dc7eb2a	0.09761651
23	0x3bb969e2	0.005658374
24	0x3d655ee0	0.055998683
25	0x3c75ae44	0.014995161
26	0x3d48248a	0.04886297
27	0x3d65aa24	0.056070462
28	0x3c627a2e	0.013823075
29	0x3d5d8861	0.05408514
30	0x3ceed2fd	0.029153341
31	0x3c2e62f4	0.010643709

encoder4.2.running_var f4 [32]
0	0x3a9dbc75	0.0012034314
1	0x3a71593e	0.00092067185
2	0x3aaac5f0	0.0013028961
3	0x397d66f8	0.00024166319
4	0x3a64a6b1	0.0008722349
5	0x39cf131a	0.00039496348
6	0x3ade6894	0.0016968423
7	0x3a22e5d3	0.0006214056
8	0x3a63e835	0.00086939643
9	0x3ac4964b	0.0014998404
10	0x3a33c415	0.00068575266
11	0x39d19c45	0.00039980016
12	0x39b581d4	0.0003461974
13	0x395e076e	0.00021174338
14	0x39e461b6	0.0004356035
15	0x3b902755	0.00439922
16	0x3981ca10	0.00024755346
17	0x39e15e59	0.0004298564
18	0x3a4a3f2e	0.0007715103
19	0x3ac03f01	0.0014667214
20	0x3a48fe1d	0.00076672604
21	0x3badbc0d	0.0053019584
22	0x3a72cc95	0.00092620525
23	0x3952dd52	0.00020109609
24	0x3a7e56f3	0.00097022875
25	0x3a4db2e4	0.0007846786
26	0x3b4abda4	0.0030935789
27	0x3b4bd18b	0.003110024
28	0x3a7cbd48	0.0009641242
29	0x3b3287fc	0.0027241698
30	0x3a8bee6d	0.0010675915
31	0x3949bac4	0.0001923843

resnet_block.0.res_block.0.0.weight f4 [32, 32, 3, 3]
0	0x394c924f	0.0001950946
1	0xbbc0fb4c	-0.005889332
2	0xba95cf59	-0.0011429592
3	0x3b0de43c	0.002165093
4	0x3c94cf60	0.01816529
5	0x3c10afad	0.008830947
6	0xbb3cdcdc	-0.0028818166
7	0xbc3f30d7	-0.011669359
8	0xbc347bb1	-0.011015818
9	0xbc3dc9db	-0.011583771
10	0xbc1ceb88	-0.009577639
11	0x3b91295f	0.0044299806
12	0x39c13536	0.00036851474
13	0xbc94b613	-0.018153226
14	0xbcb5aa64	-0.022175975
15	0xbba6ff67	-0.0050963643
16	0xbc1f859b	-0.009736444
17	0xbc127d5f	-0.008941024
18	0x3b1e0548	0.0024112035
19	0x3bf46cab	0.0074592433
20	0xba3447a9	-0.0006877133
21	0x3a44f44b	0.0007513209
22	0x3ba0f480	0.004911959
23	0xbb22d644	-0.002484695
24	0xbb8a68a2	-0.004223899
25	0xba508aa6	-0.00079552305
26	0xbc195eba	-0.0093609635
27	0x3d15977d	0.036521424
28	0x3bdbb96e	0.0067054546
29	0x3c94d264	0.018166728
30	0x3c6fa299	0.014626169
31	0x3c92991f	0.01789528
32	0x3cbacf7b	0.022804013
33	0x3c600966	0.013674116
34	0xba551419	-0.00081283
35	0x3cea9b86	0.028638612
36	0xbbac2405	-0.0052533173
37	0x3bd2f45e	0.0064378222
38	0xba875f95	-0.0010328168
39	0xbc23fb9e	-0.010008721
40	0xbb2d7e0b	-0.0026472833
41	0x3c10d03b	0.0088387085
42	0xbb0addd4	-0.0021189349
43	0xbaf179dd	-0.0018423159
44	0x3c4effe9	0.012634256
45	0xbc67be05	-0.014144425
46	0xbc3f6f34	-0.011684228
47	0xbc62b1e7	-0.013836361
48	0xbc2518b3	-0.0100766895
49	0xbca7652e	-0.020433988
50	0xbcbc0989	-0.022953765
51	0xbb8f6f66	-0.0043772934
52	0x3babe006	0.0052452115
53	0x3c1337dc	0.008985486
54	0xbcac910e	-0.021065261
55	0xbb596307	-0.0033170597
56	0xbc99447a	-0.01870941
57	0xbcae60bf	-0.021286367
58	0xbc7ea9bb	-0.015543397
59	0xbb999d66	-0.004687953
60	0xbcbbc0f1	-0.02291915
61	0xbb8d3e77	-0.004310425
62	0xbc815367	-0.01578684
63	0xbc56a95e	-0.013101904
64	0xbb95b482	-0.0045686373
65	0x3a778a01	0.00094428664
66	0x3a4eb22a	0.0007884825
67	0x3bc2ad8a	0.0059410976
68	0x3b46ccf4	0.0030334564
69	0xbc401fb6	-0.0117263105
70	0x3b70ac2b	0.0036723714
71	0x3c29c35a	0.010361517
72	0x3c905474	0.017618395
73	0x3b7af4de	0.0038292925
74	0x3b12af99	0.0022382496
75	0x3a9d9605	0.0012022859
76	0x3c0c24ee	0.008553727
77	0xbc692973	-0.014231074
78	0x3af98af8	0.0019038608
79	0xbb741882	-0.0037246053
80	0x3a885142	0.0010400193
81	0xbbc3f868	-0.00598054
82	0x3ac1b76c	0.0014779395
83	0x3c88d76d	0.016704286
84	0xbcdc5d9f	-0.02690011
85	0xbc8ebd47	-0.017424239
86	0xbc5e4f16	-0.01356866
87	0xbc089ce1	-0.008338184
88	0xbb9f3b89	-0.004859392
89	0xbbde83a1	-0.0067905937
90	0xbb98900a	-0.0046558427
91	0x3b66a569	0.0035193807
92	0x3b87cc0a	0.0041441964
93	0xbb99802b	-0.0046844683
94	0xbb930dec	-0.0044877436
95	0xbb95eddb	-0.0045754737
96	0x3c09bb09	0.008406409
97	0x3b8235f9	0.003973719
98	0xbb1de648	-0.0024093557
99	0xbc373dc0	-0.011184156
100	0xbc4091b4	-0.011753488
101	0xbc0a98fb	-0.008459325
102	0x3af31e13	0.0018548392
103	0xbb26e8d8	-0.0025468376
104	0xbc85c080	-0.016327143
105	0xbc55b2ac	-0.013043087
106	0xbb8989c3	-0.0041973307
107	0x3bde4641	0.0067832773
108	0xbc221451	-0.009892539
109	0x3862547e	5.396129e-05
110	0x38d2d7e1	0.00010053791
111	0x3cc932eb	0.024560412
112	0xbaff8d1d	-0.0019497011
113	0x380aeab2	3.312034e-05
114	0xbc3eec6a	-0.011653045
115	0x3c204dc5	0.009784167
116	0x3c887197	0.016655726
117	0xbc13c0c4	-0.009018127
118	0xbcd5900e	-0.026069667
119	0xbce02699	-0.027362155
120	0xbcae3e0b	-0.021269819
121	0xbc9d5e49	-0.019209998
122	0xbc24509a	-0.010028983
123	0x3cac1ca3	0.021009749
124	0x3b576d2f	0.0032871475
125	0x3cddcb18	0.027074382
126	0x39a76eee	0.0003193537
127	0xbc3784db	-0.011201109
128	0xbbcb51f6	-0.006204839
129	0x3b8f3233	0.004369998
130	0x3a62b755	0.00086485344
131	0xbc3e3c9a	-0.011611128
132	0x3af1a2a5	0.0018435313
133	0xbc1b4d1b	-0.009478833
134	0xb939964d	-0.00017698966
135	0xbaa47698	-0.0012547551
136	0x3c4c07b8	0.012453012
137	0x3c765aba	0.015036279
138	0x3ab77218	0.0013995795
139	0xbaf22684	-0.0018474613
140	0x3b8419af	0.004031382
141	0xbc4f372b	-0.01264743
142	0x3b335064	0.002736115
143	0xbb042048	-0.0020160843
144	0xbc8afb55	-0.016965548
145	0x3b6212e1	0.0034496116
146	0x3a41a47e	0.0007386877
147	0x358a9afb	1.0326906e-06
148	0xbc651346	-0.013981646
149	0x3b8961fa	0.004192588
150	0x39efed13	0.00045762266
151	0x3b752fe7	0.0037412585
152	0x3bbf4c5e	0.005837961
153	0x3c892fa7	0.016746355
154	0x3c9675cc	0.018366717
155	0x3bc9cece	0.0061586862
156	0x3c2050ec	0.009784918
157	0x3c1d8a6e	0.009615524
158	0x3bae233d	0.0053142593
159	0x3c3cc92e	0.011522574
160	0xbb4dea39	-0.0031420125
161	0x3b7e58bc	0.0038810214
162	0x3b6df255	0.0036307771
163	0x3c9872e4	0.018609472
164	0x3c32c007	0.010910041
165	0x3c1da1fb	0.009621139
166	0xbb4ea66d	-0.0031532303
167	0x3a8e5a20	0.00108606
168	0xbba78793	-0.0051125973
169	0x3c57b1e3	0.01316497
170	0x3c823581	0.015894653
171	0x3b8fb088	0.004385058
172	0x3c99b146	0.018761288
173	0xbbeae8f8	-0.0071688853
174	0x3be82213	0.00708414
175	0xbc020818	-0.0079365
176	0xba0bc077	-0.00053311087
177	0xbbc65fc2	-0.0060538957
178	0x3b01e23a	0.001981868
179	0x3bc5739c	0.0060257446
180	0xbbd21f36	-0.006412412
181	0xbc7bbafa	-0.015364403
182	0xbaf36c43	-0.0018571693
183	0xbb51d541	-0.0032017978
184	0xbbc2c099	-0.0059433696
185	0x3bb070f1	0.0053845574
186	0xbc2ebf74	-0.010665763
187	0xbc21dac6	-0.00987882
188	0xbc53543b	-0.0128985
189	0xbad05e5e	-0.0015897264
190	0xbbb5852e	-0.005539558
191	0xbc267630	-0.010160014
192	0xbb801d33	-0.003909731
193	0xbcb89b60	-0.022535026
194	0xbc6d76eb	-0.014493684
195	0x3b82b7e3	0.003989206
196	0x3916a647	0.00014367058
197	0x3bb4f324	0.0055221487
198	0xbc2ab90e	-0.010420097
199	0xba8fed5a	-0.001098077
200	0x3bd0201c	0.006351484
201	0xbc123d10	-0.008925691
202	0xbb748b8d	-0.0037314624
203	0xbb29e078	-0.0025921147
204	0xbbf7ab27	-0.0075582447
205	0xba86f47a	-0.0010296248
206	0xbc485f2e	-0.012229724
207	0x3b4058c1	0.0029349776
208	0xbc530c74	-0.012881387
209	0x3bce2d1a	0.0062919976
210	0x3b68b3d5	0.003550758
211	0xbb461e44	-0.0030230442
212	0xbbce6386	-0.006298485
213	0xbc3165f1	-0.010827527
214	0xbbe5f226	-0.0070173917
215	0x3abdb143	0.0014472384
216	0xbc99a1b6	-0.018753868
217	0xbc29d341	-0.010365308
218	0xbce3653a	-0.02775823
219	0xbab11402	-0.0013509991
220	0x3ca0fd1f	0.019651948
221	0x3b4b97ef	0.0031065901
222	0xbd0fc000	-0.035095215
223	0xbc3a861f	-0.011384516
224	0xbd1e8371	-0.03869957
225	0x3bd76862	0.0065737227
226	0xbc230ae3	-0.009951326
227	0xbc878886	-0.016544592
228	0x3bb8dead	0.0056417794
229	0xbc094c01	-0.008379937
230	0xbc097549	-0.008389779
231	0x3c86a458	0.016435787
232	0xbc6e1c63	-0.014533135
233	0xbcb189cd	-0.021672154
234	0x3c308a57	0.01077517
235	0x3c93e6c0	0.018054366
236	0x3b93e4c9	0.0045133573
237	0xbc54c4c2	-0.012986364
238	0xbb81859e	-0.003952696
239	0xbc6c1ab9	-0.014410668
240	0xbc878252	-0.016541634
241	0xbbc7adbf	-0.00609371
242	0xbb714975	-0.0036817465
243	0xbc991fb9	-0.018691884
244	0xbc8a0945	-0.016850123
245	0xbc238e11	-0.009982602
246	0xbc3faa99	-0.0116983885
247	0xbcc00d06	-0.02344371
248	0xbca8b472	-0.020593856
249	0x3ab71101	0.001396686
250	0xbc000d72	-0.007815706
251	0x3b91f939	0.0044547585
252	0xbbc18611	-0.0059058745
253	0xbc4fd9ef	-0.012686237
254	0xbc6222e8	-0.013802268
255	0x3bb56918	0.00553621

resnet_block.0.res_block.0.0.bias f4 [32]
0	0x3cfe911b	0.031075051
1	0xbc5214f2	-0.012822377
2	0xbbdc3ad9	-0.0067208824
3	0x3c299043	0.010349336
4	0x3bac8812	0.0052652443
5	0x3c1754da	0.009236539
6	0x3c116788	0.008874781
7	0xbc0b1b37	-0.008490375
8	0x3c915469	0.017740445
9	0x3c4d12c8	0.012516685
10	0x3cd3c0c4	0.025848754
11	0x3c66b7a0	0.014081866
12	0x3cdb0f00	0.026740551
13	0x3cd04647	0.025424136
14	0x3d18a536	0.037266932
15	0x3c8d4b3b	0.017247787
16	0xbccd8d61	-0.025091829
17	0xbc4e0757	-0.012574992
18	0x3c97b5ad	0.018519247
19	0x3bb7aeda	0.0056055607
20	0x3c90dcdd	0.01768344
21	0x3c3cca0a	0.011522779
22	0xbb17d19b	-0.0023165706
23	0xbc4b1cea	-0.01239703
24	0xbbc4e4fb	-0.006008742
25	0xbc885f5f	-0.016647039
26	0x3bdfdc63	0.006831692
27	0xb385c382	-6.228858e-08
28	0x3c8ad471	0.016947003
29	0x3c9a34ee	0.018824067
30	0xbb3cebb3	-0.002882701
31	0x3c531c86	0.0128852185

resnet_block.0.res_block.0.2.weight f4 [32]
0	0x3de02a78	0.109456
1	0x3df5b750	0.11997855
2	0x3dc1c89f	0.094620936
3	0x3e1fa267	0.15589295
4	0x3de7b14c	0.113131136
5	0x3de3d70a	0.11125
6	0x3ddb2b2a	0.10701592
7	0x3df295eb	0.11845001
8	0x3e077238	0.13227165
9	0x3de6b5a8	0.11265117
10	0x3e041aaf	0.12900804
11	0x3df3d663	0.119061254
12	0x3e4d1f7e	0.20031545
13	0x3dff6555	0.124704994
14	0x3e0177bf	0.12643336
15	0x3de7cda3	0.11318519
16	0x3d7145a3	0.0589043
17	0x3dda9c2f	0.10674321
18	0x3df5f496	0.12009542
19	0x3df4e946	0.11958556
20	0x3def6085	0.116883315
21	0x3e6b9db4	0.23009378
22	0x3dcab824	0.09898403
23	0x3dddcc0e	0.10829936
24	0x3deb3690	0.11485016
25	0x3dc5a059	0.096497245
26	0x3dd803c0	0.1054759
27	0xb9321913	-0.00016984744
28	0x3e004176	0.12524971
29	0x3de78c4a	0.11306055
30	0x3e0b86e5	0.13625677
31	0x3de43eb1	0.1114477

resnet_block.0.res_block.0.2.bias f4 [32]
0	0x3b12c360	0.0022394285
1	0x3ab71ce7	0.0013970406
2	0x3d122684	0.035681263
3	0x3d16fb0e	0.03686052
4	0xbc04a34c	-0.008095574
5	0x3cf854db	0.0303139
6	0x3bb5c969	0.0055476916
7	0xbc248abf	-0.010042845
8	0xbd0cc32c	-0.034365818
9	0xbc8039e2	-0.0156526
10	0x3c41ebd2	0.011836009
11	0x3cc17046	0.023613106
12	0x3a9948e8	0.0011694701
13	0x3bd73c3f	0.006568461
14	0xb9cbf1e3	-0.00038899397
15	0x3b0dfe2b	0.0021666388
16	0xbe108537	-0.14113317
17	0x3d71daf3	0.059046697
18	0x3d12e3fd	0.035861958
19	0x3c8370ef	0.016045062
20	0xbc0a794d	-0.008451772
21	0x3d41b400	0.047290802
22	0x3cf5943e	0.029977914
23	0x3d00ae6f	0.031416353
24	0xbc9f9c20	-0.019483626
25	0x3d4e4cc3	0.050366174
26	0xbc178813	-0.009248751
27	0xb8456b86	-4.70686e-05
28	0x3c8923ba	0.016740669
29	0xbd263b36	-0.04058381
30	0x3bf28a01	0.0074017053
31	0xbc5d46de	-0.013505666

resnet_block.0.res_block.0.2.running_mean f4 [32]
0	0x3bbfb531	0.005850457
1	0x3bfb8227	0.0076754275
2	0x3d05b292	0.032641
3	0x3d18f377	0.03734156
4	0x3b9255e5	0.004465806
5	0x3c879974	0.016552664
6	0x3c910f9d	0.01770764
7	0x3c9809b5	0.018559316
8	0x3b518d8d	0.003197524
9	0x3bd0d1e4	0.006372677
10	0x3d2750b4	0.04084845
11	0x3cb49c27	0.022047115
12	0x3cdad2bf	0.02671182
13	0x3b4e21da	0.0031453283
14	0x3bb3795d	0.005477114
15	0x3d052aa1	0.032511357
16	0x3abb24ee	0.0014277974
17	0x3a372c66	0.0006987512
18	0x3d03bc30	0.03216189
19	0x3c5671c2	0.013088645
20	0x3c70fd85	0.014708881
21	0x3d51ad73	0.051190805
22	0x3c8ab995	0.016934196
23	0x3b067b73	0.0020520359
24	0x3c0d7d10	0.008635774
25	0x3aa7fd78	0.0012816628
26	0x3b63ef7f	0.0034780202
27	0x00000000	0.0
28	0x3d073405	0.033008594
29	0x3c75cb2b	0.015002052
30	0x3b78b423	0.0037949167
31	0x3c6bd827	0.014394796

resnet_block.0.res_block.0.2.running_var f4 [32]
0	0x38be019b	9.060205e-05
1	0x38c61996	9.4461415e-05
2	0x3a8d74a7	0.0010792211
3	0x3a3b5c63	0.00071472506
4	0x38a72eca	7.971896e-05
5	0x392c4570	0.00016429066
6	0x3984ebf2	0.00025352795
7	0x3a04c4ba	0.0005064715
8	0x38231681	3.8883187e-05
9	0x38f75b6e	0.00011794908
10	0x3a1b16cb	0.0005916177
11	0x39cf4101	0.00039530548
12	0x3a417d4e	0.00073810376
13	0x3847737f	4.755286e-05
14	0x38b694f4	8.706181e-05
15	0x39c3185d	0.0003721145
16	0x37a243bb	1.9343444e-05
17	0x374fd761	1.2388308e-05
18	0x39f39c95	0.00046465234
19	0x390a2e3f	0.00013177934
20	0x396df6c7	0.00022694013
21	0x3b16d748	0.0023016501
22	0x39418d2d	0.00018458506
23	0x380a8d33	3.3033266e-05
24	0x39a1a8b5	0.0003083401
25	0x37b8335c	2.1958425e-05
26	0x386a5d8d	5.5877073e-05
27	0x00000000	0.0
28	0x39d30ef6	0.00040256203
29	0x392dcfc4	0.00016575964
30	0x38b39adf	8.564232e-05
31	0x3983148d	0.0002500158
